artefacts/sae-n_feat=1024-d_model=32-spars=0.99.pt (torch, 277274 bytes, 3 tensors)

pre_bias f4 [32]
0	0x3ed5052a	0.41605502
1	0x3e2bd91d	0.16782041
2	0x3e9f5977	0.31122944
3	0xbed2023a	-0.41017324
4	0xbeca5035	-0.39514318
5	0x3e1215d0	0.14266133
6	0xbe821fa9	-0.2541478
7	0xbe6f4595	-0.23366387
8	0xbeb06170	-0.3444934
9	0x3e732656	0.23745093
10	0x3ee84908	0.45368218
11	0xbe6ca517	-0.23109852
12	0x3e861057	0.2618434
13	0x3e5fc531	0.21852566
14	0xbeced9f6	-0.40400666
15	0xbe6b56d9	-0.22982349
16	0x3e641467	0.22273408
17	0x3e972bab	0.29525504
18	0xbe5e8e89	-0.2173406
19	0x3eedb1f8	0.46424842
20	0x3e8ed16b	0.27894148
21	0x3e888861	0.2666655
22	0xbe96797c	-0.2938956
23	0xbe016d72	-0.12639406
24	0x3e95810c	0.29200017
25	0x3ea5b25e	0.32362646
26	0xbec10b90	-0.37704134
27	0x3ecd3a2a	0.40083438
28	0xbea7f430	-0.32803488
29	0x3ed565e3	0.41679296
30	0xbe9e8254	-0.30958807
31	0xbed5f816	-0.41790837

latent_bias f4 [1024]
0	0xbea1618b	-0.31519732
1	0xbe9f5fe9	-0.3112786
2	0xbea3f92f	-0.3202605
3	0xbe8d3444	-0.27578938
4	0xbe9ae78b	-0.30254778
5	0xbe9b422e	-0.3032393
6	0xbe906c4e	-0.2820763
7	0xbe9ec7e2	-0.31011873
8	0xbe92fb56	-0.2870738
9	0xbe8b686f	-0.27228114
10	0xbe53db33	-0.20689087
11	0xbe3c892c	-0.18411702
12	0xbe397a65	-0.18113096
13	0xbdd36257	-0.10321491
14	0xbd856a37	-0.065143995
15	0xbd446060	-0.047943473
16	0x3bab8910	0.005234845
17	0xbd03b480	-0.03215456
18	0xbd1e1a71	-0.038599435
19	0xbbce1488	-0.0062890686
20	0xbc93f02b	-0.018058857
21	0xbc018491	-0.007905141
22	0xbd53b7d2	-0.051688977
23	0x3db36c47	0.08760887
24	0x3d8999f3	0.067188166
25	0x3cb44d13	0.022009408
26	0x3db8dbbe	0.090262875
27	0x3d120ff0	0.03565973
28	0x3d9560ca	0.07293852
29	0x3d21a597	0.03946456
30	0x3d8fe264	0.070256025
31	0x3d7f57ef	0.06233972
32	0x3d43f072	0.04783673
33	0x3d10ae7a	0.035322644
34	0x3d106528	0.03525272
35	0xbd67475a	-0.05646453
36	0xbde25b40	-0.11052561
37	0xbd09ba6b	-0.033625048
38	0x3941e75d	0.00018492104
39	0x3b980a5f	0.004639908
40	0x3d5d5f63	0.054046046
41	0x3d254ddc	0.040357456
42	0x3d7b5387	0.061358955
43	0xbbd67584	-0.0065447707
44	0x3cb413e3	0.021982139
45	0x3c2912b5	0.0103194015
46	0xbc8715c6	-0.016489875
47	0x3d36bca5	0.0446135
48	0x3c6136da	0.013745988
49	0x3d2f7df6	0.042844735
50	0x3d850384	0.06494811
51	0x3d8ecefb	0.06973072
52	0x3d943a81	0.07237721
53	0x3d867e84	0.065671
54	0x3d01b288	0.0316644
55	0xbe115aac	-0.14194745
56	0x3cb456da	0.02201407
57	0x3c68ff07	0.0142209595
58	0xbc362f07	-0.011119611
59	0x3d8e46c1	0.06947089
60	0xbd563ce9	-0.052304182
61	0xbcb799bf	-0.022412179
62	0x3d5aad5e	0.053387992
63	0x3c1eda76	0.00969564
64	0xbe0794d8	-0.13240373
65	0x3b84f339	0.0040573147
66	0x3d4e0f40	0.050307512
67	0x3de07b89	0.109610625
68	0xbbdeb448	-0.0067963935
69	0x3d164fd4	0.036697224
70	0x3cda7a2f	0.02666959
71	0xbe15dc8a	-0.1463491
72	0x3c4c27e3	0.012460682
73	0xbe186e13	-0.1488574
74	0x3d37e7fd	0.044898976
75	0xbd32beb0	-0.043638885
76	0x3ceed9c6	0.029156577
77	0x3c89c3ff	0.016817091
78	0x3ce4beaa	0.027922947
79	0xbdd80148	-0.105471194
80	0xbd0fdc09	-0.03512195
81	0xbd8a4033	-0.06750526
82	0x3cd4feac	0.026000343
83	0x3c4735a2	0.012158783
84	0xbd10a702	-0.03531552
85	0xbca37e08	-0.019957557
86	0xbddf726a	-0.109104946
87	0xbdca331f	-0.09873032
88	0x3ce7e53e	0.028307553
89	0x3d1d7108	0.038437873
90	0x3cf0bcd3	0.029386913
91	0xbb34389c	-0.0027499562
92	0x3ca11ef9	0.01966809
93	0x3c50268b	0.012704502
94	0x3d7300a0	0.059326768
95	0x3d0c72ea	0.034289278
96	0x3d268395	0.04065283
97	0x3c766218	0.015038036
98	0x3c8557b1	0.016277166
99	0x3d5ecbb3	0.05439348
100	0x3c156d4f	0.0091202995
101	0x3d8b0f28	0.0679
102	0x3df30506	0.118661925
103	0x3cab856e	0.020937648
104	0x3d0695af	0.032857593
105	0x3d396824	0.045265332
106	0x3d8f8364	0.07007483
107	0x3d25976b	0.040427607
108	0x3d74abe7	0.05973425
109	0xbd7c3cca	-0.06158141
110	0xbc5ff655	-0.01366957
111	0x3c699567	0.014256812
112	0xbdce3453	-0.10068574
113	0x3d183e70	0.03716892
114	0x3dc97dee	0.09838472
115	0x3b596a95	0.00331751
116	0xbd786628	-0.0606443
117	0xbd09e3d3	-0.033664536
118	0xbd6ddee4	-0.058073893
119	0xbd90c78b	-0.0706931
120	0xbdd2dead	-0.10296378
121	0x3cb3221b	0.021866849
122	0x3cb6b2f2	0.022302125
123	0x3d7278df	0.059197303
124	0xbb95491b	-0.004555834
125	0x3af13e0e	0.0018405335
126	0x3d589c67	0.052883532
127	0x3c8c66f9	0.017138945
128	0x3ceff5e3	0.029292053
129	0x3b66bad3	0.003520657
130	0xbe103f06	-0.14086542
131	0x3c9d3969	0.019192414
132	0xbd3fc805	-0.046821613
133	0x3d141af3	0.036158513
134	0x3d86593f	0.06559991
135	0xbdbe9d18	-0.09307307
136	0xbdb686fb	-0.08912464
137	0xbdece2b5	-0.115666784
138	0xbd79ade2	-0.060956843
139	0x3cefc5bc	0.029269092
140	0x3d5eff98	0.054442972
141	0x3c70e1f8	0.014702313
142	0x3d7eacb9	0.06217644
143	0x3c5f5ef1	0.013633476
144	0x3c2ac5a1	0.010423095
145	0xbd462784	-0.04837753
146	0x3c94327e	0.018090483
147	0x3b80bf4c	0.0039290544
148	0xbdd4f652	-0.10398544
149	0x3d801a07	0.06254964
150	0x3cdce339	0.026963817
151	0xbbeed155	-0.007288138
152	0x3d97f81b	0.07420369
153	0xbdb16c85	-0.086632766
154	0xbdb824f6	-0.08991425
155	0x3d5c70b6	0.053818427
156	0x3c63e562	0.01390967
157	0xbdabcc33	-0.08388557
158	0xbd8b2476	-0.06794064
159	0x3d92bf9c	0.07165453
160	0x3d8efd2c	0.069818825
161	0x3c91c64e	0.017794754
162	0xbdac1204	-0.08401874
163	0x3cc4c7b0	0.024021
164	0xbd2c21ea	-0.04202453
165	0x3cfeb4c7	0.03109206
166	0xbd318b25	-0.04334559
167	0x3dc07d89	0.09398944
168	0x3cbbf8c6	0.022945773
169	0x3d3a181b	0.045433145
170	0xbc54b7da	-0.012983287
171	0xbd1f549f	-0.03889906
172	0x3cc6940e	0.02424052
173	0x3c0923fe	0.008370398
174	0xbda6e0d3	-0.081483506
175	0x3d4b1ebb	0.049589854
176	0x3c48d6ef	0.012258275
177	0x3d493541	0.049123053
178	0x3d331646	0.043722413
179	0xbcd6d7e8	-0.026225999
180	0x3d5f9ef1	0.054594938
181	0x3d06df07	0.03292754
182	0x3e0731c0	0.13202572
183	0x3e1b008b	0.15136926
184	0x3da1a045	0.07891897
185	0x3ae5d41a	0.0017534525
186	0x3d22fe2e	0.039793186
187	0x3d535fe6	0.051605128
188	0xbdacb730	-0.08433378
189	0x3dbb4e83	0.09145834
190	0x3ca6e605	0.020373354
191	0x3d7c9b3c	0.06167148
192	0x3d790133	0.06079216
193	0xbda4fbf2	-0.08055867
194	0xbc912557	-0.017718
195	0xbd156606	-0.03647425
196	0xbd5638f4	-0.05230041
197	0x3e2a234d	0.16615029
198	0xbe01f01e	-0.12689254
199	0x3d01b7b9	0.031669352
200	0xbdbf15b2	-0.0933031
201	0xbd60682a	-0.05478684
202	0x3cb5d0e7	0.022194339
203	0x3bd0ad34	0.0063683037
204	0xbbb40daa	-0.005494793
205	0xbcbd0b66	-0.023076724
206	0x3d5134d9	0.05107579
207	0x3d9fbd07	0.07799726
208	0x3dae540b	0.08512124
209	0xbd4163ff	-0.047214504
210	0xbdfb7fe0	-0.122802496
211	0xbe1ac0f4	-0.15112668
212	0xbd822e20	-0.06356454
213	0x3c339f3f	0.01096326
214	0xba999320	-0.001171682
215	0xbd02bf82	-0.031920917
216	0xbdcedfcb	-0.10101279
217	0xbca19828	-0.019725874
218	0x3d07f7d3	0.033195328
219	0x3cf9978e	0.030467775
220	0xba2e1d69	-0.00066419557
221	0xbcd8dbdd	-0.026472026
222	0xbca7593d	-0.020428294
223	0xbd030cd7	-0.031994667
224	0x3d86f9d7	0.06590622
225	0xbd2d9aba	-0.042383887
226	0x3c9a7e42	0.018859033
227	0x3d0439e0	0.032281756
228	0x3d7bf67a	0.061514355
229	0x3d19c5d9	0.037542198
230	0x3c1776d0	0.009244636
231	0x3d146914	0.036233023
232	0x3d2b2d90	0.0417915
233	0x3ca5afe6	0.020225476
234	0x3cecda10	0.028912574
235	0x3de04549	0.10950715
236	0xbc087362	-0.008328291
237	0xbe22695e	-0.15860507
238	0x3d36053f	0.044438597
239	0xb9991f75	-0.0002920587
240	0x3d07f4da	0.033192493
241	0x3d8dfec1	0.06933356
242	0x3d4d5127	0.05012622
243	0x3e118e14	0.14214355
244	0x3d4b2e62	0.04960478
245	0x3cde0f3a	0.02710687
246	0x3caf4f97	0.021400256
247	0x3d45f323	0.048327576
248	0x3dec2754	0.11530939
249	0xbd8247bf	-0.06361341
250	0xbd04f9d9	-0.032464836
251	0xbcaba555	-0.02095286
252	0x3c889b36	0.016675573
253	0x3d8308b8	0.06398147
254	0xbd610ecb	-0.05494575
255	0x3ccee569	0.025255876

W_enc f4 [32, 1024]
0	0xbcaa13ee	-0.020761456
1	0xbebd2a75	-0.36946455
2	0xbe8914ef	-0.26773784
3	0x3d82399c	0.06358644
4	0x3e3d796b	0.18503349
5	0x3d036f7b	0.032088738
6	0x3e546876	0.20742974
7	0xbdb3f7ab	-0.08787473
8	0xbdda0255	-0.10644976
9	0xbde3e570	-0.11127746
10	0x3ca04dc7	0.019568337
11	0x3c846c8c	0.01616504
12	0xbdc088d1	-0.09401096
13	0xbe1ee223	-0.15515952
14	0x3d781f2b	0.0605766
15	0x3e35477e	0.17703053
16	0xbe25f762	-0.1620765
17	0x3d861a44	0.065479785
18	0x3e868674	0.26274455
19	0x3d389739	0.045066092
20	0xbd4d611e	-0.050141446
21	0xbe36b982	-0.17844203
22	0x3c811803	0.01575852
23	0xbe050aaf	-0.12992357
24	0x3d9d05f9	0.07667155
25	0x3d969afe	0.07353781
26	0xbe5a9d16	-0.21348986
27	0x3d91105d	0.07083199
28	0xbda6fdcd	-0.081538774
29	0x3dfc3edb	0.12316676
30	0x3db891c2	0.09012176
31	0xbdbf55ee	-0.09342562
32	0x3dacb820	0.084335566
33	0xbda6ead4	-0.08150259
34	0xbdae6fd7	-0.085174255
35	0x3e420e1c	0.18950695
36	0xbe336ef5	-0.17522795
37	0xbdd6b7e2	-0.104842916
38	0xbd51dd34	-0.051236346
39	0xbc95aafd	-0.01827001
40	0x3c9dd2d6	0.019265573
41	0x3d8b2ef2	0.067960635
42	0xbc02630f	-0.007958188
43	0x3e26a2e1	0.16273071
44	0x3d95be6a	0.07311709
45	0xbe06fcd5	-0.13182385
46	0x3e0f2f86	0.13982973
47	0x3dafeb9e	0.08589862
48	0xbc463a98	-0.012098931
49	0x3d954338	0.072882116
50	0xbc9d2a63	-0.01918525
51	0xbdff0f9c	-0.12454149
52	0x3d36b2dc	0.044604167
53	0xbe2b8a04	-0.16751868
54	0xba9c412a	-0.0011921276
55	0x3e2cd0fa	0.16876593
56	0xbcd50a2b	-0.026005825
57	0x3d430db1	0.04762048
58	0xbd7c20af	-0.061554607
59	0x3d9ec0a9	0.07751591
60	0xbeb2311c	-0.34803092
61	0xbcf7cc08	-0.030248657
62	0x3d573e10	0.05254942
63	0x3d883f6e	0.06652723
64	0xbd2c1ded	-0.042020727
65	0x3dbfe4d3	0.09369817
66	0x3d9e3977	0.07725804
67	0xbaa13101	-0.001229793
68	0xbc984515	-0.018587628
69	0x3d719b15	0.05898579
70	0x3c84ab1e	0.016194876
71	0xbe227a93	-0.15867071
72	0x3d310af4	0.043223336
73	0x3d0461e9	0.032319937
74	0x3d7802ba	0.060549475
75	0x3e635aba	0.22202578
76	0xbd432ba0	-0.047649026
77	0x3e11003e	0.14160249
78	0x3e495eda	0.19665089
79	0x3e6e7faa	0.23290887
80	0xbd69db89	-0.05709413
81	0x3da8c622	0.08240916
82	0x3d5b211e	0.05349838
83	0x3c74cb06	0.014940983
84	0x3cd99979	0.02656244
85	0x3d8d6c3e	0.06905411
86	0x3d4a542e	0.049396686
87	0xbd4efc20	-0.050533414
88	0x3dee93a9	0.11649258
89	0x3d99884e	0.07496701
90	0x3cbe6a56	0.023244064
91	0x3c0ee13d	0.008720693
92	0x3da157db	0.07878085
93	0xbd7bf0cb	-0.061508935
94	0xbe5b84ba	-0.2143735
95	0x3e1d5116	0.15362963
96	0xbd528604	-0.05139734
97	0xbd22f9af	-0.039788898
98	0x3c162381	0.009163738
99	0x3e0b4d5e	0.13603732
100	0x3bbd873b	0.005783943
101	0xbd0d22cd	-0.034457017
102	0x3cf94c40	0.030431867
103	0xbbd2f7cb	-0.0064382306
104	0x3dd210a7	0.102570824
105	0xbd383c84	-0.044979587
106	0xbd5aff2e	-0.053466015
107	0x3d218003	0.039428722
108	0xbc99af89	-0.01876046
109	0x3e438b6e	0.19096157
110	0xbc35cd86	-0.011096364
111	0xbc9acf7c	-0.018897764
112	0x3cd1ccbf	0.025610326
113	0xbccf2ddf	-0.025290428
114	0xbe3bf8c6	-0.18356618
115	0xbe3ed4dd	-0.18635888
116	0xbd7e2b95	-0.06205328
117	0xbd9f79d7	-0.07786911
118	0xbc9d3c48	-0.019193783
119	0xbdf1a55f	-0.1179912
120	0xbc937700	-0.01800108
121	0xbcfe0ba7	-0.031011416
122	0x3d51bffb	0.051208477
123	0x3dadd731	0.0848831
124	0xb91fb686	-0.00015231417
125	0xbdf0408f	-0.117310636
126	0x3cac39b7	0.021023614
127	0xbd8b8f1c	-0.06814405
128	0xbd6e83e4	-0.05823125
129	0x3cbb1da1	0.022841277
130	0xbd84d09d	-0.06485102
131	0x3e0e4459	0.1389326
132	0x3d90d81b	0.07072469
133	0x3ced1614	0.028941192
134	0x3e5f232e	0.21790764
135	0x3c258e92	0.010104792
136	0xbe41fbdd	-0.18943734
137	0xbd258a7a	-0.040415265
138	0xbd3e8cff	-0.046521183
139	0xbd0cc5ba	-0.034368254
140	0xbdbee054	-0.09320131
141	0x3dd8600f	0.10565197
142	0xbd2598e7	-0.040429022
143	0x3dd9a9f8	0.10628122
144	0x3da25424	0.07926205
145	0xbe0b05a5	-0.13576372
146	0x3c940cc1	0.018072488
147	0xbe1ccc5c	-0.15312332
148	0xbdd03b22	-0.10167529
149	0x3d545cc3	0.051846277
150	0xbc4ef1b2	-0.012630867
151	0x3c98677c	0.018604033
152	0x3d7fd289	0.06245664
153	0xbe3cd41b	-0.18440287
154	0x3dd1fef5	0.10253707
155	0xbd86dcff	-0.065851204
156	0xbca30bca	-0.019903082
157	0xbe231881	-0.15927316
158	0xbd991c9b	-0.07476159
159	0x3e8836d7	0.2660434
160	0xbe3aca0a	-0.18241134
161	0x3e5eef4c	0.21770972
162	0xbd9bed9d	-0.076136805
163	0x3d2f04c0	0.04272914
164	0x3b1d4ea2	0.0024003168
165	0x3ca5713e	0.0201956
166	0x3e620768	0.22073138
167	0x3d024119	0.031800363
168	0x3d5bd855	0.053673107
169	0xbc236602	-0.009973051
170	0x3d823648	0.063580096
171	0x3d825701	0.06364251
172	0xbd27047c	-0.04077576
173	0x3d9a1739	0.075239606
174	0x3daaa584	0.08332351
175	0xbc979741	-0.01850474
176	0x3c7cb5f2	0.0154242385
177	0x3e0dd2a9	0.13849892
178	0x3d811fc2	0.063048854
179	0x3e31d9ad	0.17368193
180	0xbd63b20d	-0.055589724
181	0x3d4e7edd	0.050413955
182	0x3ca34dff	0.019934652
183	0x3c9fc9bb	0.019505372
184	0xbcb64412	-0.022249255
185	0x3df08942	0.1174493
186	0x3d1a97a0	0.037742257
187	0xbb3c7867	-0.0028758289
188	0xbde4bbde	-0.11168645
189	0x3971790a	0.00023028642
190	0x3d0513ca	0.032489575
191	0xbc33384c	-0.010938715
192	0x3d385c13	0.045009684
193	0xbe0402b6	-0.12891659
194	0x3dc6e42f	0.09711491
195	0x3e083d40	0.13304615
196	0x3ce02228	0.027360037
197	0x3e3af766	0.18258438
198	0xbd90fb1e	-0.07079147
199	0x3d697a0e	0.057001166
200	0x3c52fa56	0.012877068
201	0x3d566c0b	0.05234913
202	0xbda5da9e	-0.080983385
203	0x3e0893a5	0.13337572
204	0x3eb1d1d6	0.34730405
205	0xbe02e6a2	-0.12783292
206	0xbb7370f9	-0.0037146194
207	0x3db72dd6	0.089442894
208	0x3e840d64	0.25791466
209	0xbdf5f072	-0.12008752
210	0x3daf0d13	0.085474156
211	0xbdd7de7d	-0.10540483
212	0xbd991e46	-0.07476477
213	0x3a0be2ad	0.00053362065
214	0xbe37c87f	-0.17947577
215	0xbd9e11a7	-0.07718211
216	0x3cb461fc	0.022019379
217	0xbe34cf8d	-0.176573
218	0xbd92f3e9	-0.071754284
219	0x3d486ca2	0.048931725
220	0xbda7bd4c	-0.081904024
221	0x3dc0f87d	0.094223954
222	0xbe39aeb0	-0.18133044
223	0x3e01c9fb	0.12674706
224	0x3d361a0d	0.044458438
225	0x3dc5c1e5	0.09656123
226	0x3da60c58	0.08107823
227	0xbe3108dd	-0.17288537
228	0x3d425a5f	0.047449466
229	0x3d0811da	0.03322015
230	0x3dabe8f5	0.083940424
231	0x3be931e0	0.0071165413
232	0x3d989bae	0.074515685
233	0xbdb30f60	-0.08743167
234	0x3c80262e	0.015643205
235	0xbc6d4248	-0.014481135
236	0xb851b8ed	-5.000171e-05
237	0xbdb1acec	-0.0867556
238	0x3cd5db93	0.026105678
239	0x3d835303	0.064123176
240	0x3dece8be	0.115678295
241	0x3c59433e	0.013260661
242	0x3d87c650	0.06629622
243	0xbdd97d6f	-0.10619628
244	0x3e4726b1	0.19448353
245	0xbcd68736	-0.02618752
246	0x3d8f8388	0.070075095
247	0x3ccd1b94	0.025037564
248	0x3e4eb328	0.2018553
249	0xbe80fa31	-0.2519088
250	0xbde31572	-0.11088075
251	0x3e0ed66a	0.1394898
252	0xbc559dc7	-0.013038105
253	0xbdc3ea6f	-0.09566199
254	0x3dc34329	0.09534294
255	0x3daf4cac	0.08559546
