artefacts/sae-n_feat=1024-d_model=32-spars=0.99.pt (torch, 277274 bytes, 3 tensors)

pre_bias f4 [32]
-0.00062863686 -0.00017445552 -6.5761225e-05 -0.00012457794 4.7115645e-05 0.00060997537 -3.4204255e-05 -0.00039878205
0.00035148993 0.00092462683 -0.00046746345 -0.00049770955 0.00020383038 0.0004047339 -0.0002858456 -0.0007869511
-0.0007910214 -6.7329594e-05 0.00013358024 0.00063733914 -0.00010300353 -0.0006331429 -0.0005970952 -0.00030720115
0.00050221884 -0.0004523192 0.00027570713 0.0006962484 0.00022736397 0.00046915913 -0.0004065455 5.6289056e-05
00000000: 1bcb 24ba 0cee 36b9 4ae9 89b8 23a1 02b9
00000010: 0a9e 4538 c1e6 1f3a 8a76 0fb8 9f13 d1b9
00000020: 2e48 b839 a862 723a e215 f5b9 b978 02ba
00000030: 4dbb 5539 7732 d439 8cdd 95b9 654b 4eba
00000040: 8c5c 4fba 4d33 8db8 ac11 0c39 1b13 273a
00000050: 9903 d8b8 80f9 25ba 6186 1cba d70f a1b9
00000060: 56a7 033a 4125 edb9 c98c 9039 7084 363a
00000070: 8d68 6e39 79f9 f539 9d25 d5b9 ea17 6c38

latent_bias f4 [1024]
0.03777958 0.03761167 0.037589516 -0.11203465 0.037408166 0.03740565 0.037272803 0.03728745
0.037634294 0.037663676 -0.10694962 0.037778623 0.037566677 0.037437037 -0.11222962 0.03771105
-0.11521917 0.03772247 0.03760513 0.037655994 -0.110350825 0.037174422 0.037470635 0.037820343
-0.109010346 -0.11063098 -0.10869961 0.037676867 -0.10451211 -0.11004372 0.03745999 0.037636936
-0.107271336 0.037466675 0.03775775 0.037270803 0.037849154 0.037519597 0.036806516 -0.10895241
-0.11083132 0.037097722 -0.10540752 -0.11073245 -0.10819476 -0.112338245 0.037454147 -0.10835178
-0.10989152 -0.109664015 0.037374206 -1.1320792 -1.3801943 -0.11066321 -0.107004456 0.03764491
-0.10225678 -0.11069382 -0.10864719 -0.12892489 0.03763107 0.03789873 -0.1067064 -0.11158807
-0.10830369 -0.10839111 -0.10570819 -0.717222 -0.10969646 0.037567455 -0.10967498 0.037099157
-0.10867663 0.037754245 -0.11320488 -0.10896755 0.037692778 0.03746336 0.037550595 0.037318982
-0.115425035 -1.0251523 0.03635342 0.03715049 -1.157256 -0.107274026 -0.11063217 -1.1600759
-1.0678743 -0.104292884 -0.105881095 -0.11391353 -0.11143842 -0.5438291 -0.108358026 0.037847493
-0.1136963 -0.11244363 -0.10762345 -0.15830891 0.03697924 -1.3332763 -1.0132422 -0.107626
-0.10510191 -0.108843796 -0.10653268 -0.11258142 -0.11250519 -0.112462536 -0.10426855 -0.110627696
-0.10627478 -0.10727684 0.03774519 -0.109493844 -1.1080067 -0.10557507 -0.110945 -0.65834665
-0.108289346 -0.11303766 0.034551438 0.037489448 -0.10292951 0.037790347 -0.111004405 -0.11086182
-0.10883147 0.037607204 -0.10802573 -0.11394031 -1.1494358 -0.1088413 -0.114403196 -0.11203628
-0.10975987 -1.8239846 -0.10897573 -0.11031197 -0.11179184 -0.10609577 -0.10701323 0.037358753
0.03752151 -0.112489745 0.037714507 0.03731177 -1.2020987 -0.11293259 -0.11166265 -0.11193762
-0.10569356 -0.110812195 -0.10723268 -0.11299943 -0.11223255 -0.10454225 0.03762857 -0.6989559
-0.1059425 -0.1092186 -1.5530261 0.0378137 -1.2999401 -0.11047295 0.03766601 0.037753917
-0.10923513 -0.112191975 0.037366398 0.035525426 -0.1077319 -0.112265356 -0.10941729 0.037854273
-0.113182254 -0.10626139 -0.10897369 -0.113008566 0.037696857 0.037527986 -0.10911778 -0.10400627
0.03776941 -0.11373111 -0.10808787 -0.1102403 -0.10397562 0.03734533 -0.1109057 -0.10626116
-0.11088778 -0.10944498 -1.6609323 0.03750353 -0.109512635 -0.85740393 -0.389753 -0.10733549
0.03710137 0.037396763 -0.11658088 -0.1094494 -0.10929107 -2.0651982 -0.10866106 -1.537467
-0.10886906 -0.10570569 -0.10836129 -0.10979522 -0.4382184 -0.34033534 -0.11055817 0.037671495
-0.10702989 -0.110494874 -1.7518332 -0.10361211 -0.110869974 -1.6643131 -0.109049976 -0.76007277
-0.11133365 -0.10829579 -1.5351232 -0.10472594 -0.11058255 -0.10924404 -0.11070654 -0.10452202
-0.1110939 0.037404526 0.03777476 -1.4650248 -0.10660649 -0.11479451 -0.10417966 -0.11094368
0.037701856 -1.7012439 -0.11358359 -0.11044243 -0.11500638 -0.111167215 -0.110350326 -0.10237952
-0.11080105 -0.11334355 -1.2677623 -0.8925021 -0.110907786 -1.2921897 -0.110763654 0.03760273
00000000: c3be 1a3d b20e 1a3d 77f7 193d 6c72 e5bd
00000010: 4e39 193d ab36 193d 5eab 183d baba 183d
00000020: 6b26 1a3d 3a45 1a3d 6708 dbbd c2bd 1a3d
00000030: 84df 193d 9457 193d a5d8 e5bd e776 1a3d
00000040: 07f8 ebbd e082 1a3d d607 1a3d 2c3d 1a3d
00000050: 9dff e1bd 3544 183d cf7a 193d 81e9 1a3d
00000060: d140 dfbd 7f92 e2bd e79d debd 0f53 1a3d
00000070: 720a d6bd 9a5e e1bd a56f 193d 3029 1a3d
00000080: 13b1 dbbd a876 193d dfa7 1a3d 45a9 183d
00000090: b707 1b3d 26ae 193d 6ec2 163d 7122 dfbd
000000a0: 88fb e2bd c8f3 173d e6df d7bd b2c7 e2bd
000000b0: 3795 ddbd 9811 e6bd 8569 193d 8ae7 ddbd
000000c0: ce0e e1bd 8797 e0bd b215 193d f9e7 90bf
000000d0: 35aa b0bf 65a3 e2bd 2725 dbbd 8d31 1a3d
000000e0: 016c d1bd 71b3 e2bd 6b82 debd e304 04be
000000f0: 0923 1a3d b33b 1b3d e388 dabd 4988 e4bd
00000100: 53ce ddbd 29fc ddbd 897d d8bd dc9b 37bf
00000110: 8aa8 e0bd 55e0 193d 479d e0bd 49f5 173d
00000120: da91 debd 32a4 1a3d f6d7 e7bd 612a dfbd
00000130: be63 1a3d 2e73 193d a7ce 193d cadb 183d
00000140: f663 ecbd 3138 83bf 53e7 143d 1d2b 183d
00000150: f720 94bf 7cb2 dbbd 1f93 e2bd 5e7d 94bf
00000160: 1bb0 88bf 8297 d5bd 30d8 d8bd 7f4b e9bd
00000170: d439 e4bd 6238 0bbf d0ea ddbd f905 1b3d
00000180: 9bd9 e8bd d948 e6bd af69 dcbd bb1b 22be
00000190: 8b77 173d cca8 aabf ecb1 81bf 056b dcbd
000001a0: ac3f d7bd 7fe9 debd ce2d dabd 1691 e6bd
000001b0: 1f69 e6bd c252 e6bd c08a d5bd c690 e2bd
000001c0: 98a6 d9bd f6b3 dbbd b39a 1a3d 4f3e e0bd
000001d0: 2ad3 8dbf be37 d8bd 2237 e3bd 6889 28bf
000001e0: cec6 ddbd 4a80 e7bd cf85 0d3d 898e 193d
000001f0: b5cc d2bd 0dca 1a3d 4756 e3bd 860b e3bd
00000200: 09e3 debd 030a 1a3d 983c ddbd 8a59 e9bd
00000210: b620 93bf 30e8 debd 394c eabd 4773 e5bd
00000220: c8c9 e0bd 5478 e9bf ab2e dfbd 3eeb e1bd
00000230: 1ff3 e4bd bd48 d9bd c129 dbbd 7e05 193d
00000240: 28b0 193d 0661 e6bd 877a 1a3d 3ad4 183d
00000250: 5fde 99bf 3449 e7bd 63af e4bd 8d3f e5bd
00000260: dd75 d8bd 81f1 e2bd cf9c dbbd 3f6c e7bd
00000270: 2eda e5bd 3f1a d6bd 6a20 1a3d c6ee 32bf
00000280: 62f8 d8bd 00ae dfbd 8fc9 c6bf 8ae2 1a3d
00000290: 7064 a6bf a43f e2bd ad47 1a3d daa3 1a3d
000002a0: abb6 dfbd e8c4 e5bd 820d 193d 1c83 113d
000002b0: 8ba2 dcbd 61eb e5bd 2c16 e0bd 150d 1b3d
000002c0: 19cc e7bd 929f d9bd 992d dfbd 0971 e7bd
000002d0: 0568 1a3d f2b6 193d 2579 dfbd 3d01 d5bd
000002e0: 19b4 1a3d dbeb e8bd 2c5d ddbd abc5 e1bd
000002f0: 2bf1 d4bd 6bf7 183d 8722 e3bd 739f d9bd
00000300: 2219 e3bd b124 e0bd 6e99 d4bf 4d9d 193d
00000310: 2948 e0bd d37e 5bbf b58d c7be b6d2 dbbd
00000320: 9bf7 173d 592d 193d f5c1 eebd 0227 e0bd
00000330: ffd3 dfbd 352c 04c0 b189 debd b8cb c4bf
00000340: bef6 debd 3a7c d8bd 86ec ddbd 51dc e0bd
00000350: 2a5e e0be 6f40 aebe 526c e2bd 6d4d 1a3d
00000360: 7d32 dbbd 234b e2bd 123c e0bf 9632 d4bd
00000370: cc0f e3bd 3608 d5bf 9855 dfbd 2194 42bf
00000380: e602 e4bd 2fca ddbd eb7e c4bf 8e7a d6bd
00000390: 1b79 e2bd 57bb dfbd 1cba e2bd a40f d6bd
000003a0: 3385 e3bd 7d35 193d b5b9 1a3d ef85 bbbf
000003b0: 8154 dabd 6219 ebbd 255c d5bd 7136 e3bd
000003c0: 436d 1a3d 5cc2 d9bf 839e e8bd a42f e2bd
000003d0: 7788 ebbd a3ab e3bd 5aff e1bd 5bac d1bd
000003e0: a9eb e2bd aa20 e8bd 0946 a2bf 057b 64bf
000003f0: 9f23 e3bd 7966 a5bf 0ed8 e2bd 5205 1a3d

W_enc f4 [32, 1024]
-0.007379982 0.07400268 0.00075064454 -0.135885 0.07085171 0.030733429 0.048535913 0.06812894
0.042662837 0.009783748 -0.18950737 -0.056739327 -0.011137989 0.04318775 -0.048748966 0.020956542
-0.33413684 -0.0055909003 -0.023044178 -0.037511673 0.18828787 -0.000990155 0.038982864 0.020712506
0.033986058 0.16815478 0.19717045 0.004770005 0.110372074 -0.06770131 0.045619663 0.05493328
0.06063251 -0.034779485 -0.051490586 -0.02724417 0.021392442 0.038417578 -0.021866746 -0.17293349
0.035570152 -0.042943083 -0.023311548 0.028155897 0.1136708 0.15510228 -0.0017231749 -0.1423067
-0.18718205 0.031963672 0.00047237484 -0.02902271 0.018749598 -0.15930337 -0.14296556 0.011070355
0.08841942 0.0005192908 -0.09093009 -0.0010028504 0.03228704 0.00579914 -0.063851744 0.20318137
-0.17894249 -0.05585341 0.16936721 -0.026703646 0.09674911 -0.017686676 -0.09972194 -0.039777175
0.063634165 0.07312207 -0.082970574 -0.07619525 -0.02561968 0.069678836 -0.023560215 0.0117370915
0.075328656 0.0044861636 0.06378988 0.019357545 0.00384649 0.06960144 0.15434812 0.011994833
-0.005268445 -0.23359656 -0.11668672 0.11708239 0.071964405 -0.040607747 0.058192417 -0.045489583
0.22388369 -0.0040348917 0.08388706 0.0050877556 -0.03595836 -0.012246483 -0.007451611 -0.07331089
-0.20272371 0.1864549 0.029069858 -0.17921884 0.14140756 0.0961923 -0.09835888 -0.029591043
0.176501 -0.021511048 -0.016795073 0.2103214 -0.010925561 0.14046426 -0.24277282 0.033214808
-0.3446853 -0.12169391 0.0482963 -0.054850817 0.08881384 -0.02735202 -0.1040066 0.07331081
0.16568 -0.016977329 0.27886337 0.1316802 -0.0026052913 -0.067367546 -0.16642602 -0.17241865
0.15506557 0.015447135 -0.12636176 -0.19172473 0.11697559 0.021719577 -0.11930431 0.034154646
0.019994503 0.17963582 0.04450314 0.07974236 0.0041895225 0.102224946 -0.040089257 -0.026001185
0.119741134 -0.26200014 -0.22547361 0.38304758 0.23351738 0.06944349 0.037777685 0.027317734
-0.09834349 -0.07574038 0.0061545176 0.02327819 -0.0134018175 -0.16555732 -0.021363338 -0.06176438
0.32130894 0.058265623 -0.06816786 0.06323379 0.16243415 0.17147462 -0.1358921 -0.035836965
0.12745376 0.070838295 -0.17383297 0.10926798 0.07040879 -0.020094145 -0.12365456 -0.007495693
-0.027114604 0.06671816 0.16634484 -0.18892618 0.11735303 -0.0501551 -0.09081373 -0.05853347
-0.2625058 0.1587389 0.014627245 0.05230193 0.36971843 0.0041984646 -0.002443186 0.20975542
-0.008789611 0.057736743 -0.0174242 0.08077042 -0.1556618 0.023515174 -0.0010787719 0.010193774
-0.09696151 0.00596061 -0.13867548 0.17158806 -0.01638654 -0.0014717359 -0.18189977 0.06636926
-0.12424826 -0.08520373 0.006252108 -0.1785562 -0.02497031 0.04148496 0.1229155 -0.01639117
-0.039964035 -0.10472363 -0.025935767 -0.0908234 -0.15088588 0.17846943 0.07858712 0.038641665
-0.2228183 -0.038477015 0.060607247 -0.0055837836 -0.33408234 0.18749082 -0.009057903 0.19420223
-0.013364682 -0.025897983 0.01399205 -0.044101942 -0.21455249 -0.032440413 0.10296209 -0.013215347
-0.18850355 0.081517175 -0.019666936 0.0062596286 0.014085096 -0.039860915 -0.12886758 0.035950344
00000000: c7d3 f1bb b88e 973d e7c6 443a 7025 0bbe
00000010: b41a 913d acc4 fb3c 98cd 463d 3087 8b3d
00000020: 3abf 2e3d 034c 203c 380e 42be 7f67 68bd
00000030: 1d7c 36bc a3e5 303d ffac 47bd 0ead ab3c
00000040: fc13 abbe df33 b7bb 25c7 bcbc d7a5 19bd
00000050: 89ce 403e 17c8 81ba 7fac 1f3d 46ad a93c
00000060: f734 0b3d c430 2c3e 0de7 493e b44d 9c3b
00000070: c10a e23d fca6 8abd afdb 3a3d b801 613d
00000080: cb59 783d ef74 0ebd cbe7 52bd 2a2f dfbc
00000090: 343f af3c c05b 1d3d e421 b3bc 7a15 31be
000000a0: 02b2 113d 16e5 2fbd dcf7 bebc 32a7 e63c
000000b0: 3dcc e83d 22d3 1e3e 28dc e1ba d9b8 11be
000000c0: a7ac 3fbe 57ec 023d 14a9 f739 09c1 edbc
000000d0: c298 993c 6c20 23be 9065 12be 6f60 353c
000000e0: 3e15 b53d 0421 083a 8e39 babd 1372 83ba
000000f0: 6a3f 043d b606 be3b b4c4 82bd c70e 503e
00000100: b33c 37be 8cc6 64bd 996e 2d3e 9bc1 dabc
00000110: 6624 c63d a6e3 90bc 043b ccbd 64ed 22bd
00000120: a152 823d 06c1 953d 7aec a9bd 410c 9cbd
00000130: 5de0 d1bc c7b3 8e3d 5a01 c1bc ee4c 403c
00000140: e945 9a3d ab00 933b 45a4 823d b793 9e3c
00000150: 6515 7c3b 338b 8e3d 6f0d 1e3e fa85 443c
00000160: eba2 acbb f033 6fbe 72f9 eebd e4c8 ef3d
00000170: 1362 933d 4f54 26bd 2c5b 6e3d 4953 3abd
00000180: c441 653e 2037 84bb fbcc ab3d 30b7 a63b
00000190: 1349 13bd 79a5 48bc a52c f4bb 0524 96bd
000001a0: ce96 4fbe 09ee 3e3e e923 ee3c 2585 37be
000001b0: 25cd 103e 7800 c53d 6170 c9bd ea68 f2bc
000001c0: aebc 343e f037 b0bc d295 89bc 7e5e 573e
000001d0: 2001 33bc ddd5 0f3e 7099 78be 400c 083d
000001e0: 977a b0be a83a f9bd 57d2 453d 40ab 60bd
000001f0: 08e4 b53d 5811 e0bc 6a01 d5bd fa23 963d
00000200: 05a8 293e 0a14 8bbc 2ec7 8e3e 2dd7 063e
00000210: 89bd 2abb fff7 89bd 956b 2abe 848e 30be
00000220: 82c9 1e3e fb15 7d3c fa64 01be 7d53 44be
00000230: e690 ef3d 41ed b13c d155 f4bd bee5 0b3d
00000240: 83cb a33c 74f2 373e ed48 363d f64f a33d
00000250: 4348 893b 505b d13d a234 24bd 7000 d5bc
00000260: d73a f53d e224 86be 8ee2 66be d01e c43e
00000270: 2e1f 6f3e 6338 8e3d c6bc 1a3d 71c9 df3c
00000280: 5068 c9bd c61d 9bbd d6ab c93b e7b1 be3c
00000290: 4c93 5bbc dc87 29be 2b02 afbc a6fc 7cbd
000002a0: 9b82 a43e efa7 6e3d 979b 8bbd b880 813d
000002b0: 2355 263e 0b97 2f3e 4c27 0bbe c8c9 12bd
000002c0: 3d83 023e ab13 913d 4501 32be e4c7 df3d
000002d0: 7c32 903d 7a9c a4bc 9a3e fdbd 6e9e f5bb
000002e0: 721f debc 88a3 883d 4d56 2a3e dd75 41be
000002f0: c956 f03d 6f6f 4dbd 8dfc b9bd cbc0 6fbd
00000300: 2967 86be 738c 223e 1da7 6f3c 8c3a 563d
00000310: bc4b bd3e 4693 893b dc1d 20bb 20ca 563e
00000320: 4d02 10bc 5d7d 6c3d 32bd 8ebc f66a a53d
00000330: cf65 1fbe e5a2 c03c 9465 8dba c903 273c
00000340: c293 c6bd 3951 c33b f200 0ebe c8b4 2f3e
00000350: 113d 86bc 43e7 c0ba ef43 3abe 9bec 873d
00000360: df75 febd 4b7f aebd 7cde cc3b 70d7 36be
00000370: 898e ccbc 22ec 293d 1fbb fb3d c646 86bc
00000380: 54b1 23bd 5879 d6bd 3f77 d4bc 9e01 babd
00000390: d481 1abe b1c0 363e 49f2 a03d b946 1e3d
000003a0: 7b2a 64be 139a 1dbd 4e3f 783d 2cf8 b6bb
000003b0: d70c abbe 98fd 3f3e 9967 14bc f3dc 463e
000003c0: 8af7 5abc 0228 d4bc e93e 653c 3da4 34bd
000003d0: a6b3 5bbe 3de0 04bd cadd d23d 2f85 58bc
000003e0: 1307 41be 7af2 a63d 8e1c a1bc 921d cd3b
000003f0: 2dc5 663c 3345 23bd ddf5 03be ab40 133d
