artefacts/sae-n_feat=1024-d_model=32-spars=0.99.pt (torch, 277274 bytes, 3 tensors)

pre_bias f4 [32]
000000 31 2b 37 ba c7 64 68 ba f7 1d 48 ba 9a 2b 1f 3b
       -0.0006987332 -0.00088651147 -0.00076338596 0.0024287463
000010 69 3a e1 bb b7 a0 f7 3b 33 de 52 bb b1 77 a7 3a
       -0.006873418 0.0075570005 -0.0032175898 0.001277676
000020 c9 b6 10 bb 4a cc 32 39 da 16 aa 39 52 cf 71 ba
       -0.0022081605 0.00017051506 0.00032441952 -0.00092243135
000030 a8 75 17 ba 17 a0 d7 ba 05 0c 01 3b d6 6c 63 bb
       -0.0005777725 -0.0016450909 0.0019691002 -0.0034702322
000040 83 56 90 bb 47 70 6a bb 2b 97 81 3a 1c 46 75 3a
       -0.0044048443 -0.003577249 0.000988697 0.00093564554
000050 8d 85 ba b8 41 a2 66 3a fe 8b 1b 3b 06 59 2c ba
       -8.894047e-05 0.00087979814 0.0023734565 -0.0006574545
000060 6a fe f5 ba 79 2b dc ba e4 ba 2e 3b 42 91 5a 3a
       -0.0018767838 -0.0016797624 0.0026661688 0.0008337685
000070 78 43 c1 ba b8 ca 94 38 52 fa c6 3b 44 0c 0d bb
       -0.0014744839 7.094949e-05 0.006072321 -0.0021522203

latent_bias f4 [1024]
000000 e8 5c b9 bd db c0 b5 bd 8a 8b b4 bd 8d f2 b7 bd
       -0.090509236 -0.08874675 -0.088156775 -0.0898181
000010 ab 04 e3 ba d4 dc bb bd ce e7 b5 bd 41 a0 b6 bd
       -0.0017320117 -0.09172979 -0.08882104 -0.08917285
000020 ee 8d 8f 3c 1c 22 93 3c 2c a1 bf bd a9 ba 8d 3c
       0.017523732 0.0179606 -0.09356913 0.01730092
000030 c7 17 13 bd 55 7b b7 bd f2 3b fe ba 24 c2 be bb
       -0.035911348 -0.089590706 -0.0019396527 -0.005821483
000040 32 ef ff 39 14 b9 9e 3c 6b 2e ba bd 9c a0 9b 3c
       0.00048815605 0.019375362 -0.09090885 0.018997483
000050 79 dd b6 bd 4c 9c 94 3c 8b d7 bf bd 30 49 b8 bd
       -0.08928961 0.018140934 -0.093672834 -0.089983344
000060 9f 25 bd bd 28 34 8e 3c 39 9e 99 3c d0 53 b7 bd
       -0.09235691 0.017358854 0.018752204 -0.08951533
000070 d5 13 9b 3c 2d 7f c1 bd c4 eb be bd bd 87 b8 bd
       0.018930355 -0.09448085 -0.093223125 -0.09010265
000080 89 b4 c5 bd 38 9f be bd ff 85 9b 3c e0 e9 9a 3c
       -0.09653575 -0.09307712 0.018984793 0.018910348
000090 b0 49 b0 bd 4a 4f bd bd d9 d5 02 3c ad a8 c5 bd
       -0.08607805 -0.09243639 0.007985556 -0.09651313
0000a0 a6 ab cc bd 68 5e c4 bd a6 7e dd be c8 26 c8 bd
       -0.09993677 -0.09588319 -0.43260688 -0.09773022
0000b0 c1 4e c7 bd d2 d0 f2 be 18 30 c1 bd 72 01 b9 bd
       -0.09731818 -0.47424942 -0.09433001 -0.09033479
0000c0 91 00 c1 be a9 9b c5 bd 94 d4 93 3c 22 79 f7 be
       -0.37695745 -0.096488304 0.018045701 -0.48334605
0000d0 ae 39 c8 bd 9b 40 b8 bd 78 98 9c 3c 71 92 a6 bd
       -0.097766265 -0.089966975 0.019115672 -0.081334
0000e0 db bb c3 bd 95 74 bb be 3e 05 c4 bd 9d 6f 9e 3c
       -0.09557315 -0.36612383 -0.09571312 0.01934033
0000f0 ac 76 6b be 15 1c b8 bd 44 cd c6 bd bf 0e c1 bd
       -0.22994488 -0.08989731 -0.0970712 -0.09426641
000100 59 ed b8 bd 01 87 bc bd 1d 5b 80 be 14 99 80 bd
       -0.090296455 -0.092054375 -0.25069514 -0.06279197
000110 5d 35 e9 be 35 9e c4 bd 4a c0 c3 bd 75 87 f9 be
       -0.45548525 -0.09600488 -0.095581606 -0.48736158
000120 e4 4e bc bd c0 49 bd bd 35 42 d2 bd 96 5b 48 be
       -0.09194735 -0.09242582 -0.10266534 -0.19566187
000130 dc 5e bc bd 09 c1 c1 bd ef 6c 9b 3c 0d 34 25 be
       -0.091977805 -0.09460647 0.018972842 -0.16133137
000140 c5 96 b7 bd 11 77 c4 bd 4d c0 bc bd b9 fb c5 bd
       -0.08964304 -0.095930226 -0.09216366 -0.09667153
000150 b0 d8 b9 bd f5 ea 90 be 90 5d cf be 92 d1 05 bf
       -0.09074533 -0.28304258 -0.4050107 -0.52272904
000160 f2 01 bf be e6 ed c9 bd 17 81 99 3c ae 37 be bd
       -0.37306172 -0.09859829 0.018738313 -0.09287964
000170 21 75 ba bd 64 f1 c9 bd 80 d7 bf bd 6c 46 c6 bc
       -0.09104372 -0.09860495 -0.09367275 -0.024203502
000180 6f e5 c6 bd 9a 24 c5 bd 76 03 c4 bd 57 44 f9 be
       -0.0971173 -0.09626122 -0.095709726 -0.48684952
000190 fd 90 97 3c c4 bc c1 bd f2 d5 ee be 22 c1 80 be
       0.018501753 -0.09459832 -0.46647602 -0.2514735
0001a0 15 ed a3 be 9b 68 c2 bd 90 bb c3 bd b7 4c 0e bd
       -0.32016817 -0.09492608 -0.09557259 -0.03474113
0001b0 1e 2b 9e be e2 e2 b9 bd 50 bb c2 bd 82 fe f4 be
       -0.3089227 -0.090764776 -0.09508383 -0.47850424
0001c0 58 f2 73 be 13 63 b4 bd a6 44 c5 bd 78 8c c5 bd
       -0.23822916 -0.088079594 -0.09632234 -0.09645933
0001d0 36 9a e3 bd 3e da a7 be f7 47 bc bd 4d 18 f2 bc
       -0.11113398 -0.32783693 -0.09193414 -0.029552603
0001e0 75 a0 bf bd 62 1a c3 bd 6a 49 c5 bd 75 82 f5 bd
       -0.093567766 -0.095265165 -0.09633143 -0.11987773
0001f0 9e 03 c7 bd ca 6a c8 bd 2d 1b d1 be 1f c2 c6 bd
       -0.09717487 -0.097859934 -0.40841046 -0.097049944
000200 be 6a c0 bd 5a ce c9 be fb e7 c8 bd 85 52 be bd
       -0.093953595 -0.39415246 -0.09809872 -0.09293083
000210 46 3b bf bd d0 79 87 bd 90 8d c0 bd 90 61 d8 be
       -0.093374774 -0.06615031 -0.09402001 -0.42261934
000220 65 0e 9b be d6 fb c3 bd d5 9b 98 bd 13 10 b9 bd
       -0.3028442 -0.09569518 -0.074515976 -0.09036269
000230 ac 3c c7 bd 54 fe ce bd f7 88 bd bd c3 10 c2 bd
       -0.09728369 -0.10107103 -0.092546396 -0.09475853
000240 46 85 c0 bd c8 bd 56 bd df b6 9a 3c e1 75 be be
       -0.0940042 -0.052427083 0.018886028 -0.3719931
000250 ad 4c 7d bd 4a 4a 9f bd 50 ad 9f bd 54 19 bd bd
       -0.0618407 -0.077778414 -0.077967286 -0.092333466
000260 31 47 cb bd b4 51 a7 be 55 0a d6 be 12 fd c8 be
       -0.09925688 -0.32679522 -0.41804758 -0.39255577
000270 c5 29 c4 bd fe ee b7 bd 74 03 c3 bd 99 75 c4 be
       -0.095782794 -0.08981131 -0.09522143 -0.3837097
000280 0d fa b6 bd 98 a5 04 bf 3a dc c4 bd 03 82 f2 be
       -0.08934412 -0.51815176 -0.096123174 -0.47364816
000290 44 21 bb bd 2c 51 bb be 91 d0 bf be f5 93 be bd
       -0.09137204 -0.36585367 -0.3746381 -0.09305564
0002a0 d2 92 cb bd 81 1d e0 be c8 f2 c4 bd bb 88 c1 bd
       -0.09940113 -0.4377251 -0.09616619 -0.094499074
0002b0 2e e4 87 be 31 de cd bd 09 a3 ea be f8 39 c3 bd
       -0.26541275 -0.10052145 -0.4582751 -0.09532541
0002c0 08 3c d7 be a6 63 bc bd c2 1a c8 bd 84 ee bf bd
       -0.42037988 -0.09198694 -0.09770729 -0.09371665
0002d0 17 ae c2 bd 52 d2 c4 bd 50 44 bd bd c7 63 38 bd
       -0.09505861 -0.09610428 -0.09241545 -0.04501703
0002e0 d4 cd c9 bd d9 19 c5 bd 1b b6 c0 bd 96 27 c5 bd
       -0.09853712 -0.09624071 -0.09409734 -0.09626691
0002f0 46 34 08 bf ce 39 c2 be d7 97 91 be 66 06 cf bd
       -0.5320476 -0.37934726 -0.28436157 -0.10108642
000300 70 62 c8 bd a4 22 c5 bc e0 01 b5 be 9b 07 c0 bd
       -0.097844005 -0.02406437 -0.35352993 -0.09376451
000310 0e 2f ca bd 7b c6 be bd 03 fa d2 be bd 02 15 bf
       -0.09872256 -0.09315201 -0.4120637 -0.58207303
000320 16 37 b9 bd 5b 76 c8 bd b1 87 a5 bd 62 da b6 be
       -0.0904371 -0.097881995 -0.08082522 -0.35713488
000330 8d 0f be bd a4 d0 5d bd 43 f2 bf bd 2e 1d a7 be
       -0.0928031 -0.054154053 -0.0937238 -0.3263945
000340 cd b5 8c be 31 a1 c5 bd 53 4e b7 bd aa 83 e8 be
       -0.27482453 -0.096498854 -0.08950486 -0.45412952
000350 e0 16 c3 bc a5 32 c5 bd a5 ce bf bd 3d c7 c1 bd
       -0.023814619 -0.096288 -0.09365586 -0.0946183
000360 42 f5 ab bd b9 24 bc bd 56 59 c3 bd fb 35 bf bd
       -0.083963886 -0.09186692 -0.09538524 -0.09336468
000370 81 70 c8 bd 67 bf c3 bd d8 98 bd bd 65 b4 a8 bd
       -0.097870834 -0.095579915 -0.09257668 -0.082375325
000380 86 1b 7c be e8 6d c6 bd fb d8 81 be 65 c7 bf bd
       -0.24619874 -0.09688932 -0.25360855 -0.09364203
000390 a5 71 c9 bd 75 d0 6f bc ef a2 d9 be 80 00 7d be
       -0.09836129 -0.014637102 -0.4250712 -0.24707222
0003a0 0f 73 be bd 6b 4d b7 bd bc 4d c3 bd b0 56 2d bf
       -0.092992894 -0.08950313 -0.09536311 -0.677104
0003b0 71 17 c7 bd 8e 48 e0 be f2 0f e9 bd 62 18 f2 be
       -0.09721268 -0.43805355 -0.113799945 -0.47284228
0003c0 50 5b 06 bf a2 61 e2 be ae bf c4 bd 22 64 ca bd
       -0.5248308 -0.44215113 -0.096068725 -0.0988238
0003d0 4a ff bb bd aa b2 96 3c 2d a8 c4 bd b9 bc c5 bd
       -0.09179552 0.01839574 -0.096023895 -0.096551366
0003e0 85 a3 9e 3c 40 0c ab be 36 52 79 be a0 11 9d be
       0.019365082 -0.33407784 -0.24347767 -0.3067751
0003f0 21 f7 c1 bd f4 96 bf bd 67 ce a5 3c d5 61 c2 bd
       -0.09470964 -0.09354964 0.020240022 -0.09491316

W_enc f4 [32, 1024]
000000 72 30 7c bc 74 12 1c be 36 5d b9 bc a0 f7 37 be
       -0.01539241 -0.15241414 -0.022627454 -0.17965555
000010 99 39 0d bd 81 0e 5e 3c 9a 65 d1 bd 3c 78 c2 bd
       -0.034478758 0.013553263 -0.10224457 -0.09495589
000020 16 57 6a bd 6c a1 0c 3c b9 0f 45 be 3a ba 36 bd
       -0.057211958 0.008583408 -0.19244279 -0.044611193
000030 83 10 2f 3e 44 1a 93 bd 85 bf 37 ba 4a 76 81 3c
       0.17096142 -0.07182744 -0.00070094346 0.015803475
000040 44 1e b5 3d 1a 3e 2f 3d 2a 75 ae 3c be 78 58 bd
       0.08843663 0.042783834 0.021296103 -0.052849524
000050 c2 db 28 be 12 f6 d6 bc 4e 3a 2c 3e 06 ad e7 bd
       -0.16490081 -0.026240382 0.16819116 -0.113122985
000060 18 17 58 3e 5e ef b6 3d a1 2e 2b 3c 9b 38 69 3e
       0.2110256 0.089323744 0.010448129 0.227755
000070 ce 1e 4e bd 30 3c 3f 3e 5d b2 53 be 6c 1a f0 bd
       -0.050322346 0.18675303 -0.20673509 -0.117237896
000080 12 ce 91 3d 4f ef 31 be 36 90 cf 3c 5c 50 6a 3d
       0.07119383 -0.17376445 0.02533732 0.057205543
000090 38 b1 87 3e fc 3c fc bd 47 20 a3 3c 20 39 a2 bd
       0.26502395 -0.12316319 0.019912852 -0.07921052
0000a0 df 45 5d be 74 bd 32 3e 3b b4 95 bc 65 1b 22 be
       -0.21608685 0.17455083 -0.018274417 -0.15830763
0000b0 fc 8d 44 3b f5 31 9e bc 6f d8 4e 3e ee 77 2f 3e
       0.0029991856 -0.01931093 0.2019975 0.17135593
0000c0 fe 2c 2a bc 11 8a 19 3e 49 8d cf 3c 63 2d 8c 3b
       -0.010386704 0.14994074 0.025335925 0.0042778715
0000d0 b5 f5 a6 be 4f b3 a6 be 09 84 90 3d ae 79 0f bd
       -0.32609335 -0.32558677 0.07056434 -0.035028152
0000e0 20 7c 71 3d 54 ca 43 bc 77 51 47 3e 6c e6 45 3d
       0.058956265 -0.011950094 0.1946467 0.04831545
0000f0 a9 3e 2c ba d6 89 3f bd 18 19 1d 3e a1 0b 52 3e
       -0.00065706164 -0.04676231 0.15341604 0.20512249
000100 9e 0a 9b be d7 0a aa bd c9 39 08 3d 3b 71 ff 3c
       -0.30281538 -0.08302849 0.033258233 0.031181922
000110 aa 1b ac bc 19 aa 8b bc 41 39 46 bd 2a 64 af bc
       -0.021009285 -0.017048882 -0.048394445 -0.021410067
000120 c6 0f 12 be ee 63 29 be d9 b7 d1 bd 1f 80 b5 3c
       -0.1426383 -0.16542026 -0.10240144 0.02215582
000130 ea 53 fe 3d 7d ad c4 bd ce 66 a5 bd 85 e7 37 bc
       0.12418349 -0.09603403 -0.08076249 -0.011224632
000140 27 ca 8d 3d 73 20 21 be 77 fc 5a 3c 45 fe 64 bc
       0.06923323 -0.15735035 0.013365856 -0.013976638
000150 84 3f 87 bd 17 36 28 bd 0e 4b 76 bc 25 a5 99 3c
       -0.066039115 -0.04106721 -0.015032543 0.018755505
000160 88 d5 97 3b 5a 75 e0 bd e7 77 22 bc bf 24 64 3d
       0.004633609 -0.10959883 -0.009916282 0.055699106
000170 b8 52 56 3d 7e 35 83 3d f4 8f 1b 3e 29 74 2b 3d
       0.05232498 0.06406687 0.15191633 0.041858826
000180 69 3a b6 bd 65 30 88 3d 9e 5f 1e 3e 6b ec 0d 3c
       -0.088978596 0.066498555 0.15466163 0.0086623235
000190 df 47 5f bd 5e e1 61 be 81 6f 9c 3b 26 e2 b0 3c
       -0.0545119 -0.22058627 0.0047740345 0.021592211
0001a0 bb 72 0a bd e7 5e 66 3b 56 93 61 be 39 83 31 3e
       -0.03380082 0.003515178 -0.2202886 0.17335214
0001b0 17 b4 e8 3c 7f b9 e8 3d 18 ce 88 3d 2d 5a 9a 3c
       0.028406186 0.113635056 0.06679934 0.018841827
0001c0 e8 2c ce 3c 44 8b 7c 3e e1 9a 3d ba 3a 6b 7a 3e
       0.025167897 0.246625 -0.00072328566 0.24454966
0001d0 01 aa d8 bd 0e 42 9a 3b dc fe 80 3d dc a9 cc bd
       -0.10579301 0.0047075814 0.062986106 -0.099933356
0001e0 72 a0 2f be dc 93 a1 bc 6b df 21 be f4 36 3b bd
       -0.17151049 -0.019723825 -0.15807883 -0.045706704
0001f0 c5 15 d1 3d 14 47 65 bc 2b 6d 91 bc 4c e1 1c 3e
       0.1020923 -0.013993997 -0.01775225 0.15320319
000200 c1 ab 12 3e ab ba ae 3b a1 99 a2 be f5 0a 4c 3e
       0.14323331 0.005332311 -0.31757835 0.19926055
000210 7a 20 c4 bd d5 d7 ad bd 6d 72 5f bd 29 4e ab bc
       -0.09576507 -0.08488432 -0.054552484 -0.020911293
000220 ce a3 cb 3b e9 a7 4f bd 48 41 e7 bc 99 b8 0a be
       0.0062145954 -0.05069724 -0.02822937 -0.13546981
000230 9c c5 2a 3e b5 3e 14 b9 29 5a 70 3e 03 d8 9a 3e
       0.16676944 -0.0001413774 0.23471893 0.3024293
000240 f8 1c 3e 3e 27 e5 08 bd 6a aa 1b bd bf 2e 9a bc
       0.18565738 -0.03342166 -0.038004316 -0.018821118
000250 38 31 83 3c 7e 0f 38 bd f4 d0 0d bd 3d f8 7a 3d
       0.01601468 -0.04493665 -0.0346231 0.061271895
000260 21 d4 b7 bd 41 51 03 3b 2e 76 80 bc 40 c6 cb 3b
       -0.08976007 0.0020037445 -0.015681352 0.0062187016
000270 46 ec b6 3d 65 d7 3b 3d c6 fe 12 be de 31 1f 3c
       0.08931784 0.045859713 -0.14355001 0.009716479
000280 b6 ad 08 be 97 f7 4c 3c e7 aa b9 3d 05 7a f8 3c
       -0.13347515 0.012510202 0.090658 0.030331621
000290 b2 56 48 bd a5 e7 bf bc bf c6 e1 bc 2f dd 44 3d
       -0.048910804 -0.023425886 -0.02756059 0.0480625
0002a0 f6 2a c8 3d a8 e3 37 bd bf fe c0 3e ed 5a 18 3e
       0.09773819 -0.044894844 0.37694356 0.14878435
0002b0 c8 e6 64 3b 82 bc 22 bb 77 64 fc bb 55 73 87 bd
       0.0034927595 -0.0024831598 -0.007702406 -0.06613795
0002c0 1c 47 b2 ba 45 6c 22 3e e4 62 19 be d0 b0 2a be
       -0.0013601515 0.15861614 -0.1497913 -0.16669011
0002d0 aa 47 ab bd 7f f8 16 3d 41 bc e4 3d d3 12 da 3d
       -0.08363278 0.036858078 0.11168719 0.10648122
0002e0 ce d5 26 bd b3 05 23 bd 4a e0 f4 3d b1 7c 31 3e
       -0.040731244 -0.039800357 0.11956842 0.17332722
0002f0 1e 34 c6 3c 78 d8 ba 3a 04 0d 56 3d 6b 57 02 3d
       0.024194773 0.0014255187 0.052258506 0.03182165
000300 c2 e7 d0 3d b3 c7 4c bb ad 93 19 3c 96 4e a3 3d
       0.10200454 -0.003124696 0.009373588 0.079739735
000310 2f c2 ff bd af 80 e8 bd f3 37 93 bc 29 da 88 ba
       -0.124882095 -0.113526694 -0.017971015 -0.0010440993
000320 81 79 0a be 89 83 9a 3d 3a 9f 05 be 22 d5 b0 3c
       -0.13522913 0.075446196 -0.13049021 0.021586005
000330 06 bd 2b bd 4d 87 e3 3d ba f4 86 3d 87 8e d4 ba
       -0.041928314 0.11109791 0.06589647 -0.0016216793
000340 dc 35 dc 39 c0 94 cb 3d 8a 84 7f 3e 99 f8 f5 ba
       0.00042001798 0.09940481 0.24952903 -0.0018766104
000350 53 4d b4 bd 78 f5 e1 3c 6f a3 0a 3d c0 98 6a 3e
       -0.08803811 0.027582869 0.03384727 0.22909832
000360 a0 e3 99 3d 0b 6c 47 be 1e 64 00 3d b1 fb 40 3d
       0.07514119 -0.19474809 0.03134548 0.04711503
000370 1c aa bd 3d 93 8a a6 3d 96 3e f0 bd be 5b 9b bd
       0.092609614 0.081319 -0.11730687 -0.07585858
000380 38 b2 a6 bb 3f e8 c3 be 11 03 99 bc 3e 3d ad 3d
       -0.0050871633 -0.38263127 -0.01867822 0.08458947
000390 d3 43 9e bd 86 53 be bd a9 d1 1d 3b ec ee 00 bc
       -0.0772778 -0.092932746 0.0024081266 -0.007869463
0003a0 76 51 b7 3e 88 5b 43 bc 7d 9f 2e 3e 96 84 32 bc
       0.35804337 -0.011923678 0.17053027 -0.010895869
0003b0 f5 83 82 3d e9 c1 8e bb 4a 60 fe 3c d7 a0 c1 38
       0.06372825 -0.004356612 0.031051774 9.232916e-05
0003c0 a6 36 20 3c c8 2d 1c 3c 7c b9 4c 3e e0 d9 06 be
       0.009778654 0.0095323995 0.19992632 -0.1316905
0003d0 87 cf 36 be 3d 29 8f bd 5d 3d 74 3d 45 38 fc 3c
       -0.17852603 -0.069902875 0.059628833 0.03078855
0003e0 ce f1 2d bd 2a d3 17 b8 28 9a ca 3b 28 90 b4 bc
       -0.04246693 -3.6197867e-05 0.0061829276 -0.022041395
0003f0 94 38 d8 bd 0f 39 1e 3e 60 de f7 3c 68 5d 0a 3a
       -0.105576664 0.15451454 0.030257404 0.0005278201
