artefacts/sae-n_feat=1024-d_model=32-spars=0.99.pt (torch, 277274 bytes, 3 tensors)

pre_bias f4 [32]
00000000: 046e 383b d94b 7fba 895d d5ba 48e1 07bb
00000010: 3125 b5b9 8048 bc3a 78f5 3dbb 08ad 61ba
00000020: f9a9 8f3a 567f 0739 b2e8 463a ef53 62ba
00000030: bd68 023b be4f 343a eaa6 d2ba 3d78 2f3b
00000040: 768d 783a 0861 9b3a 5f04 e3b9 efdb 753a
00000050: b1ab 98ba 72b2 a83a 0268 643b 085f 413b
00000060: 7f48 72bb 4460 7a3b a660 52ba 3fe1 0a3b
00000070: 6f40 3d3a 8de4 033b ada8 6a3b f048 733a
0.0028141746 -0.000973878 -0.0016278486 -0.0020733643 -0.0003455072 0.0014364868 -0.0028985422 -0.00086088525
0.001096069 0.0001292204 0.0007587775 -0.0008633723 0.0019898855 0.00068783376 -0.0016071473 0.0026774548
0.00094815285 0.0011854479 -0.0004330007 0.0009378781 -0.0011647848 0.0012870564 0.0034852033 0.0029506106
-0.003696948 0.0038204351 -0.0008025266 0.0021191386 0.0007219379 0.002012524 0.0035806105 0.0009280583

latent_bias f4 [1024]
00000000: 2cc3 b9bd b7e3 b23b b771 8bbd 32dc bfbd
00000010: c4aa b9bd bba7 a13c 678e 9e3c ed86 adbd
00000020: 42d8 9c3c da10 953c 99e7 a53c a9cc b7bd
00000030: aecc b4bd 2da5 c2bd d64b 9c3c 45ff b2bd
00000040: a37d c0bd d82c aebd 86af b9bd c7c2 b3bd
00000050: d7e4 c0bd 908f 963c b28c b6bd 8612 bfbd
00000060: ee81 b2bd da8b 953c 56d6 9a3c 8c3f a13c
00000070: fc7f c2bd 071c babd 13a2 bebd a82f 9e3c
00000080: b1be 9c3c e840 c8bd 999c 953c c963 c5bd
00000090: a7e6 bdbd 86a5 873c 35ba bcbd 6363 9a3c
000000a0: 00ef c1bd 14b6 973c 3950 b8bd 69db efbe
000000b0: e1fa 8bbe 8699 c3bd c04a b6bd b8cf c5bd
000000c0: 3418 c3bd eae1 b6bd c4d4 bbbd 5a51 c9bd
000000d0: be75 bcbd 8ed5 ddbe 020f a4be cc11 bdbd
000000e0: 18e1 f0be 85e0 a23c 0a75 b2bd f2de b5be
000000f0: 6e06 e1be 1d6d c6bd 2417 13bf a7d2 b9bd
00000100: 15a4 bfbd 4ca3 bebd ddda 54bc 3f19 c2bd
00000110: afb2 eabe ffe0 e0be a875 bebd 08dc c3bd
00000120: 78ec bbbd f507 c9bd 3225 c6bd e5db bbbd
00000130: 1290 b9be 194d bebd 494b bdbd aa18 c7bd
00000140: a07e c8bd 87f5 c2be 6664 b5bd b56c c1bd
00000150: 292c c1bd 443e a23c 199f c0bd 4987 c0bd
00000160: bb30 bebd 20b1 14be f866 bfbd 747c a4bc
00000170: a92c bfbd 003a ccbe 8712 bcbd 9dda b9bd
00000180: 0c2e fabe 85a4 d8be b3d5 64bd f12e cbbd
00000190: f392 c3be 78f5 c5bd 8df1 c5bd f821 a13c
000001a0: 518f 53bb 9272 0cbf 79f0 bcbd 2f7f b8bd
000001b0: 327f bbbd 7711 c1bd 474a c2bd b0a6 e9be
000001c0: 8b01 b3be 1293 d7be 442e cdbd 0a80 c0bd
000001d0: 7bb4 bcbd 9feb c7bd 1b60 c3bd 06b1 8fbe
000001e0: 1869 9f3c 4e59 c2bd 0949 14bf 2dd2 5cbe
000001f0: 672e c0bd 8123 cabd 607f c9bd 4294 c8bd
00000200: 0819 c4bd 48d7 c0bd 00cf c3bd dd50 c2be
00000210: 1219 bcbd 2d23 e7be 7945 c0bd f6ac b9bd
00000220: ed3b b4be 8b41 22bf 54d5 cebd c839 c4bd
00000230: 0c73 bfbd 9ca6 85be 3c35 c2bd 9dbe eebe
00000240: beb5 bcbd 4197 07bf a67a d8be 6060 babd
00000250: a101 14be 8f69 c1bd 5ec6 cabd 0ba5 c2bd
00000260: 3735 bbbd 701d fcbe 8e48 00bf 7c5a bebd
00000270: ab03 b8bd ca5f c4bd f4c8 c7bd 2d4d c3bd
00000280: b36e c6bd dc73 bcbd 79bb c6bd 38ef d3be
00000290: 05c5 c4bd 4eeb c5bd 5a4d 9bbe c2e5 cabd
000002a0: 9ccc c7be 6181 b3bd ac66 c4bd 85de edbe
000002b0: 42dc c4be accb babd 3fd4 c5bd f284 d9be
000002c0: a26b c7bd 8fb9 8abe fe72 c5be fcba d2be
000002d0: fb00 d8be 085d c0bd 8f3c 43be 98ed c3bd
000002e0: fb89 f4be 0217 ccbd 7296 34be a0e5 c1bd
000002f0: d71c c6bd e158 9abc 60a4 60bd 8d52 bfbd
00000300: 467c c0bd da05 debe d569 c5bd 98ad bfbd
00000310: 8f33 a5be 3425 bcbd 8638 91bd d53a bcbd
00000320: b240 b3be a2f7 84be 27c1 c6bd 2ff3 bdbd
00000330: 3297 c4bd 8d8a bcbd 02a0 c2be 95ac 5dbe
00000340: 2ed3 bebd 4f79 c6bd 78de c7bd 2102 22bc
00000350: b2ad 10bf 9b0c b2be fe4d b5be 56c0 91bd
00000360: b113 babd c2d7 babd eeb6 bdbd 6e8b a8be
00000370: f7d9 fbbd 168c c0bd 3266 c1bd 6d77 f9be
00000380: 755b 1abf 9c98 c6bd c3cf bcbd 3dc9 cabd
00000390: 17e8 bdbd afd1 c6bd c0f6 c2bd 96d1 bbbd
000003a0: dd88 bdbc 39d3 b8bd 1840 0ebd 15a1 edbe
000003b0: 2808 b4be 8118 b6bd 4efe c0bd 2473 3bbd
000003c0: 70b4 09bf 0653 60be bc8d babd c847 fbbe
000003d0: abb3 c2bd 4e09 edbe 1927 96be 62f5 c0bd
000003e0: 96e1 c4be 8a82 0dbc 28a6 c8bd 1751 86be
000003f0: 223c c6bd bf13 eebe d2b3 b8bd 4f50 b7bd
-0.09070429 0.0054592746 -0.06808799 -0.09368171 -0.09065774 0.0197333 0.019355012 -0.08473001
0.019146089 0.018196512 0.020252036 -0.08974583 -0.08828102 -0.09504161 0.01907913 -0.08740095
-0.09398963 -0.08504647 -0.090666816 -0.08777385 -0.09418648 0.018379003 -0.08913554 -0.09329705
-0.08716188 0.018255163 0.018901031 0.019683622 -0.09497067 -0.09087377 -0.09308257 0.019309834
0.019133897 -0.09778005 0.018263148 -0.09638173 -0.09272509 0.01655842 -0.09215204 0.01884622
-0.09469414 0.018519439 -0.08999676 -0.46847084 -0.27339843 -0.09550767 -0.08900976 -0.0965876
-0.09526101 -0.089298084 -0.09171441 -0.0982997 -0.09202145 -0.43326992 -0.320427 -0.0923191
-0.47046733 0.01988245 -0.0871373 -0.35521656 -0.43950218 -0.096887805 -0.57457185 -0.09073382
-0.09357468 -0.0930849 -0.012991634 -0.094774716 -0.4583945 -0.43921658 -0.09299785 -0.09563452
-0.09175962 -0.09815971 -0.09675063 -0.09172801 -0.3624273 -0.09292049 -0.09242875 -0.09721501
-0.09789777 -0.38077947 -0.0885704 -0.09444562 -0.09432251 0.019805081 -0.094053455 -0.094008036
-0.09286638 -0.14520693 -0.093458116 -0.020078875 -0.0933469 -0.39888 -0.09183221 -0.090749
-0.48863256 -0.42313018 -0.055867862 -0.09921063 -0.3819805 -0.0966596 -0.09665213 0.019669518
-0.0032281468 -0.5486232 -0.09225554 -0.09008633 -0.0915512 -0.09427159 -0.094868235 -0.45634985
-0.34962115 -0.42104393 -0.1001859 -0.093994215 -0.092141114 -0.09761738 -0.09539815 -0.28064746
0.019459292 -0.0948969 -0.5792394 -0.2156455 -0.093838505 -0.09870053 -0.09838748 -0.09793903
-0.09575087 -0.09416062 -0.095609665 -0.3795232 -0.09184469 -0.45144024 -0.09388251 -0.09066193
-0.3520197 -0.6338126 -0.10099283 -0.095813334 -0.09348115 -0.26103675 -0.0948281 -0.466298
-0.09214352 -0.5296517 -0.42281073 -0.09100413 -0.14453746 -0.09443962 -0.09901117 -0.09504136
-0.09141009 -0.4924121 -0.5011071 -0.09294602 -0.089850746 -0.09588583 -0.09755126 -0.095362045
-0.09689083 -0.09201786 -0.09703726 -0.41393447 -0.09607891 -0.096640214 -0.30332452 -0.09907104
-0.39023292 -0.087649114 -0.095898956 -0.4645883 -0.38449293 -0.091208786 -0.09659623 -0.42484242
-0.09737326 -0.27094695 -0.38564295 -0.41158283 -0.42188248 -0.09392744 -0.1906607 -0.09566802
-0.4776152 -0.09965326 -0.17635515 -0.094676256 -0.096734695 -0.018841209 -0.05484426 -0.09341917
-0.09398703 -0.4336384 -0.096393265 -0.09359282 -0.322659 -0.091867834 -0.07090859 -0.09190909
-0.35010296 -0.2597018 -0.0970481 -0.09274899 -0.09599151 -0.09206114 -0.380127 -0.21647866
-0.09317623 -0.096911065 -0.097592294 -0.009888203 -0.5651504 -0.34775242 -0.35411066 -0.07116763
-0.09085787 -0.09123184 -0.09263407 -0.32918876 -0.12297433 -0.09401719 -0.0944332 -0.48723927
-0.602958 -0.09697077 -0.09219315 -0.099016644 -0.09272783 -0.09707963 -0.0951972 -0.09170835
-0.02313655 -0.090246625 -0.034729093 -0.46411958 -0.35162473 -0.088913925 -0.09423505 -0.045764104
-0.5379095 -0.21906671 -0.09109065 -0.49078202 -0.09506925 -0.4629616 -0.29326704 -0.09421803
-0.38453358 -0.00863708 -0.09797317 -0.26233742 -0.09679438 -0.4649944 -0.09018673 -0.089508645

W_enc f4 [32, 1024]
00000000: 9910 c7bd bd49 05bd e92e e7bd 0028 f2bd
00000010: 8133 103e 8553 aa39 a481 e1bc c352 a93d
00000020: 71f9 98bc 27cb 4a3d 573f a0bc 2a00 893e
00000030: 76aa 863d d781 63be e40c 72bd 9a15 ccbc
00000040: 03ab 02be 5057 9a3e 6a53 493d 1409 49bd
00000050: 38b0 d93d 64db 2cbd 2b50 69be af8b 20be
00000060: 1edd cb3d e692 54bd a89c 64bd 1448 813d
00000070: 9ec2 66be 0bc5 46bd 8da1 f33b dd7b b83a
00000080: 610e 13bd 4513 2ebe 9547 9dbd f2b8 97bd
00000090: e618 ee3c 8e99 253d 8632 153d 9fba 0f3d
000000a0: 9f7a 373c 76b0 8cbd 16ea d7bd beb6 66bc
000000b0: 7fd5 7fbc 224b 47bd 6714 173e fe61 8f3e
000000c0: 00ac d1bd 9f11 f8bd 48ac 9ebd 1d3d 1c3e
000000d0: 2822 183b f54c 1fbc 953c 42bb 13e6 33bd
000000e0: c719 5c3c c38a 703d 54ae a83d f1c5 de3c
000000f0: 4740 95bb 8cd0 5e3c 196d 873b 58e6 1abd
00000100: 76ff febc 7e14 7a3e 8a66 85bd 068f 0fbe
00000110: 8f10 4dbc d8ca b0bb 31de 953d 692e 9d3d
00000120: 2169 163d 177c 3d3e e1bb 813e 0e9c bcbc
00000130: e3fd 3cbc 52e8 483e f678 13bd 1261 623e
00000140: e087 923e 03fb 543c 9c1b 503c fd55 e53d
00000150: bf42 ba3e 7d45 bebc c768 d7bd 848d 6b3e
00000160: 0382 b43c 1e72 ffbb 61cb a33d 6935 5f3d
00000170: c121 e93c c2ee bebc 741e b0bd cf13 c8bd
00000180: 3546 c83a 1268 92bb b174 dabd fc8d 9abc
00000190: 1e70 58ba 3a4c ee3d 58c2 bd3d 6ccb ccbc
000001a0: 4a5a d0bd 90ea d5bc 6dd9 7d3d f7c0 31be
000001b0: 8633 c4bd 14b7 fe3d b30f 333e 64aa 7438
000001c0: f4f2 16bd d77e ad39 df49 ed3d 4894 103d
000001d0: 4739 36be 51c3 29be ba6e 6d3e f4c0 843b
000001e0: e080 19bd 067f 3fbd 841d 2b3c 668b 073c
000001f0: b27a 62be de29 24bd 40c0 7a3e 562a d03d
00000200: 2728 023d e91e d13c 60d1 003d b1ce 4ebc
00000210: 0642 adbd 3e6a 48bc ae1e 643d 0a21 3f3d
00000220: 9044 1ebc d175 b53c d461 033e ecbd acbe
00000230: e31a 9e3d 72bf 073d fd26 34be f07a 863c
00000240: 74bd 0e3e e6c0 92bb 2e6e d13a dbef a3be
00000250: f65a 163c 1a19 e8bd f8ab 05be d4be e83d
00000260: 665c 0dbe da71 9e3c 3a4e 0cbd 87cd cfbd
00000270: fb92 fabc 2f6e 953a 6558 b13c b7b1 9fbd
00000280: 9894 1fbd 7559 2b3e e2d5 27bd 6192 21bc
00000290: e3fc dc3c 6a70 423e b90a 533c 4059 a53d
000002a0: 734d 1bbc afcd 283e a8fb 1d3c 8cb2 81bc
000002b0: fe2e 153d 107f 24be 76d4 283c fd9a a0bb
000002c0: 38bd c63c 4186 a0bc b2e9 193c 45c8 86bc
000002d0: 905c 36bc 6aeb 85be a7f8 1a3a c92d aabc
000002e0: 071f 8abb 3ddd 8b3d 3bdd b73c 4e41 bb3d
000002f0: 3a69 113e 560c 5bbd 4b12 9ebc b7b0 223e
00000300: 5dee 143e cd4e 0f3c 3251 91bd 8c32 6f3d
00000310: d45e aabc fd1c 89bd d0d0 c33d 9436 83be
00000320: a107 193d 6c7a 12bc 793f 3bbe bf22 7b3d
00000330: 6daf 273e 775c 06be d9de 9c3b 4e96 91bc
00000340: e91a 3c3e fc81 cd3d 4142 22be 5272 a13d
00000350: c3ed 793c 80c5 963c 2084 8e3b 4149 fd3d
00000360: 5432 923d d393 403e a114 2a3e 861f ac3c
00000370: 4d8d d0bc 05ce 923c acac 9a3e 0a5c 0e3d
00000380: cb22 26bc f2e2 8bbd 2ada 523e 7541 80bb
00000390: 5fc8 a73e 866f 0c3c e1b8 1fbb d094 ac3d
000003a0: 874d d4bd 97b7 2a3d 4a5e af3d cb54 74bb
000003b0: 6e6b c1b8 cc56 5ebc 7e12 cfbd 24a4 a43c
000003c0: 1180 f8ba a115 273c de6e 543d 250d 81bc
000003d0: ed4e ffbd a692 413b 4c30 46bc 0f4d 58be
000003e0: 7421 75bc 27fb 833d 23df 26be a318 febb
000003f0: 0afa 0fbd d6fc 97bb ff8b 593d 1d3e e33c
-0.097199626 -0.032541025 -0.11288244 -0.11824036 0.14082147 0.00032487154 -0.027527638 0.08267739
-0.01867363 0.049510147 -0.019561453 0.26757938 0.065754816 -0.22217499 -0.059094325 -0.024912644
-0.12760548 0.3014474 0.049151815 -0.049080923 0.10629314 -0.042201415 -0.22784488 -0.15678285
0.09954284 -0.051897906 -0.05581346 0.06312576 -0.22535178 -0.04852776 0.00743503 0.0014075
-0.035902385 -0.16999538 -0.07679669 -0.074083224 0.029064607 0.040429644 0.036425136 0.035090085
0.011198669 -0.06869595 -0.10542695 -0.014081655 -0.015614866 -0.048655637 0.14753877 0.2800445
-0.102378845 -0.12112736 -0.07747704 0.15257688 0.0023213718 -0.009722938 -0.002963816 -0.043920588
0.01343388 0.058726083 0.082363755 0.027193995 -0.0045547816 0.013599526 0.0041328785 -0.03781733
-0.031127673 0.2442188 -0.065136984 -0.14019403 -0.012516155 -0.0053952746 0.0731777 0.07674868
0.036721352 0.18504368 0.25338653 -0.023023631 -0.011535141 0.19619873 -0.03600403 0.22107342
0.2861929 0.012999299 0.012701895 0.111980416 0.36379048 -0.023226494 -0.105180316 0.23003203
0.02203465 -0.0077955863 0.07997776 0.054494295 0.028458478 -0.023307208 -0.085995585 -0.09769403
0.0015279712 -0.0044679726 -0.10666788 -0.018866532 -0.0008256453 0.11635633 0.09265584 -0.024999343
-0.10173471 -0.026112825 0.06197493 -0.17358766 -0.0958014 0.12437263 0.17486458 5.8332822e-05
-0.036852792 0.00033091634 0.115863554 0.035297662 -0.17795287 -0.16578414 0.2318677 0.004051322
-0.03747642 -0.046752 0.010444049 0.008272981 -0.22117117 -0.04007899 0.244874 0.10164325
0.031776574 0.025527434 0.031449676 -0.012622521 -0.084598586 -0.012232361 0.05569332 0.046662368
-0.009659901 0.022150906 0.12830287 -0.3373865 0.07719972 0.03314156 -0.17592998 0.016416043
0.13939458 -0.0044785617 0.0015978271 -0.32018933 0.00917696 -0.11332913 -0.13053882 0.113645226
-0.13804778 0.019341398 -0.03425429 -0.10146623 -0.030587664 0.0011400635 0.021648595 -0.07797568
-0.03896007 0.16733344 -0.04097546 -0.00986156 0.026976055 0.18988195 0.012880974 0.08073664
-0.009478915 0.16484712 0.009642519 -0.015832208 0.03642177 -0.16064095 0.010304561 -0.0049012885
0.024260148 -0.019595267 0.009394096 -0.016452918 -0.011130467 -0.2615617 0.0005911686 -0.020773785
-0.0042151245 0.06829307 0.022444358 0.09143315 0.14200297 -0.05347856 -0.019295832 0.15887724
0.14544053 0.008746815 -0.07095565 0.058397815 -0.02079717 -0.06694982 0.09561312 -0.25627577
0.03736079 -0.00894032 -0.18285932 0.061312433 0.16375513 -0.1312121 0.0047873077 -0.017771866
0.1836964 0.10034558 -0.15845586 0.07883133 0.015254441 0.018404722 0.0043492466 0.12367488
0.071385056 0.1880639 0.16609432 0.021011125 -0.025458002 0.017920503 0.30209863 0.034755744
-0.010140131 -0.06830396 0.20591035 -0.003914053 0.3277006 0.008571511 -0.002437167 0.08426821
-0.1036635 0.04167899 0.08562906 -0.0037281986 -9.2229675e-05 -0.013570499 -0.10110949 0.0200978
-0.0018959065 0.010198028 0.051863544 -0.015753338 -0.12466226 0.0029536872 -0.012096476 -0.21123146
-0.014961589 0.06444388 -0.16296057 -0.007754402 -0.035150565 -0.0046382947 0.053112026 0.027739579
