artefacts/tms_sae-n_feat=1024-d_model=32-spars=0.99.pt (torch, 277274 bytes, 3 tensors)

pre_bias f4 [32]
00000000: bb03 d3bb 87fc d63a 2aa6 ea3a 9e5f 853b
00000010: 5d56 43bb eefe bbbb f767 143a a6d9 32bb
00000020: 40dc c73b ecd3 003c 29c0 80ba 08a7 b439
00000030: 886d 51bb 311f 973a 975a a7ba 6fbe 7abb
00000040: 3c8b 1b3b 728f 34bb bca0 383b 61bd e83a
00000050: 17fe 0fba c995 bcba 1eef 5dba 11ea 223b
00000060: 068d b23a 8052 c5b9 d182 683b e130 36b9
00000070: 5330 8db7 44e9 223b 4e34 6dbb 93a3 82bb
-0.0064396537 0.0016402163 0.0017902304 0.0040702363 -0.0029806115 -0.005737177 0.0005661244 -0.0027290373
0.006099254 0.007863026 -0.0009822893 0.00034456723 -0.0031956155 0.0011529682 -0.0012768087 -0.003826048
0.0023734113 -0.002755132 0.0028171977 0.0017756635 -0.00054928794 -0.0014387901 -0.0008466112 0.0024858753
0.001362235 -0.00037636235 0.0035478363 -0.00017375081 -1.6831013e-05 0.0024858275 -0.0036194506 -0.0039867847

latent_bias f4 [1024]
00000000: f7fc 81be 8888 3abe 3659 6bbe eb43 4ebe
00000010: 5778 5ebe bc88 6abe 7f95 3abe 640f 34be
00000020: cdf0 42be 1b76 37be fcc1 48be 3905 47be
00000030: 061f 14be 48de cfbd 9132 9cbd b994 c5bd
00000040: b526 94bd fbad d1bd f8d3 c8bd 0005 ddbd
00000050: 6c63 d5bd 2fc8 d6bd 9b59 dcbd cb71 d9bd
00000060: 7cb6 dabd 917e e6bc b337 8abb fef0 d0bd
00000070: 2c29 4dbd eb0d d9bd 0511 d7bd 4b46 d73c
00000080: 469f 12bc 38dd d3bd bc1d d03c 1274 623c
00000090: b343 24bc a57e d53c c12f d73c 6349 e03c
000000a0: f75e cf3c e818 d23c 7158 d53c aef7 d63c
000000b0: b15a cbbd 6c4b d23c 9d00 d1bd 2a42 dfbd
000000c0: d1a7 e4bd 139d cc3c c9ae 613c 518b 44bd
000000d0: 87e5 d93c e819 d3bd 040e d6bd 57d2 d1bd
000000e0: 1f4e 253c 0a49 dcbd 2321 debd 8965 d73c
000000f0: bf9c d8bd 7aff dabd 2d36 e1bd 6428 f9bb
00000100: 1607 e33c 6fc4 dfbd b25f d7bd 8582 dfbd
00000110: e54f 623c 6eaf d6bd d13b 86bc bafc e73c
00000120: f4c0 4dbc f6b3 6cbb 956d e0bd bc22 d3bd
00000130: e0a6 dfbd 3498 d73c 2e1a 813c a91b cebd
00000140: 7ab7 d9bd 8321 cebd 2fec d3bd 9f6f f2bc
00000150: 1d11 d7bd 390e dbbd 5508 debd 9d12 d9bd
00000160: 7805 d43c 2a48 dcbd be4c dabd 9367 d6bd
00000170: bada d93c 75cc d03c 6235 d4bd 6c11 d3bd
00000180: b0cf df3c c336 083b eb4d dd3c c727 dc3c
00000190: dac6 c9bd 548e d3bd 07dc 8fbc af9c d0bd
000001a0: c6d3 d4bb cc54 d83c 7048 dfbd 61bd d43c
000001b0: eef8 d7bd de40 d3bd 111b dabd 221a dc3c
000001c0: 0c7d d3bd 858f d6bd d80b eebd a597 d0bd
000001d0: c9f8 debd a324 d8bd cdfa d6bd 7e97 dcbd
000001e0: 6fc9 40bd ad3c d5bd 6c9e dc3c e388 dcbd
000001f0: b2a2 1fbc 3ec8 dabd 379b d6bd 51e5 96bd
00000200: 42dd cb3c 8c3e 5c3c f4da 4e3c ca34 dcbd
00000210: 50c1 dcbd 6738 e0bd 86fa d5bd cfcc e03c
00000220: 2cc4 d0bd e1ea d43c 2635 ba3c 9e70 333c
00000230: 62da d1bd 1deb d7bd 90bd dc3c cf0e 983c
00000240: dd90 d93c cd2f e13c f220 d1bd 8380 cb3b
00000250: 3eb9 dbbd 5f51 b6bd 984d cabd 7bf8 d6bd
00000260: 3447 da3c a7e2 d6bd 6983 d9bd 9398 d8bd
00000270: 3504 dbbc e4de debd 3013 14bc f4b4 dbbd
00000280: fadb 60bd e96f d93c f8ec cabd d425 de3c
00000290: 86ea d6bd 34f2 dfbd afb7 e03c aa02 ddbd
000002a0: c783 d1bd 8948 d23c 4ea5 d8bd fab4 e3bd
000002b0: 12c4 df3c 3398 c93c 3f4e 6fbe 7324 e8bd
000002c0: 2f3d e03c f6d8 d0bd efd6 d3bd ef29 d83c
000002d0: d362 da3c 2f7b e3bd bf47 e3bd ce05 e1bd
000002e0: 7485 dbbd 34c5 dfbd e0be d7bd 73eb e63c
000002f0: c650 dbbd 0fe1 70bd 6c96 d8bd 5f96 dcbd
00000300: b3e9 d5bd 49ac d2bd 573e db3c d4c2 dcbd
00000310: 588e d8bd 03d8 9139 c5c0 d1bd c221 d8bd
00000320: 712d d23c 9c8d d33c 1600 d03c b2ca dd3c
00000330: 325a dabd 51c7 e4bd 3864 d4bd 7896 d0bd
00000340: 4cc1 d8bd efd8 07be f2da d6bd abdf ae3c
00000350: 54d9 d83c ca3f d6bd 958c d2bd db43 d9bd
00000360: fa01 debd d2a5 d93c dddd d4bd 5bb9 d5bd
00000370: 3007 d2bd 622e d73c c70c c43c cb69 0fbc
00000380: 77b0 5a3c 120f ddbd 8c58 d0bd b8fd d73c
00000390: a9f0 c9bc 2e01 d23c 22f2 1cbe bac2 db3c
000003a0: 56a4 e4bd 14d0 d1bd e3be d8bd 3fe5 3a3c
000003b0: 3dcc d03c c321 07bd e96a ddbd 8de8 dabd
000003c0: 60e4 d23c fdfa d8bd ef0e d0bd 3e2f e03c
000003d0: a02e 4ebe 3792 43bc 4e78 d6bd 37cd d6bd
000003e0: 7bb3 23be 4eb2 2dbe efa1 d8bd b3a0 cdbd
000003f0: 5e5d e2bd 43e1 bebd 0fb6 debd 0c98 e2bd
-0.2538831 -0.18216145 -0.2298325 -0.20143096 -0.21725594 -0.22903723 -0.1822109 -0.17583996
-0.1903717 -0.17916147 -0.19605249 -0.19435586 -0.1446496 -0.10149819 -0.07626832 -0.09647507
-0.07233945 -0.10238262 -0.09806055 -0.10791969 -0.10419354 -0.10487401 -0.107592784 -0.106174074
-0.106793374 -0.028136523 -0.0042180656 -0.102022156 -0.050088093 -0.10598358 -0.10501293 0.026278635
-0.008949107 -0.103449285 0.025404803 0.013821619 -0.010025906 0.026061365 0.026267888 0.027378744
0.025313837 0.025646642 0.026043149 0.02624115 -0.099294074 0.02567073 -0.10205195 -0.10901292
-0.11164821 0.024977243 0.013774582 -0.047984425 0.026598705 -0.103076756 -0.10451892 -0.10245197
0.010089426 -0.107561186 -0.10846164 0.026293533 -0.10576772 -0.106932595 -0.10996661 -0.007603692
0.02771334 -0.109261386 -0.10516299 -0.109135665 0.013812994 -0.10482679 -0.016385945 0.028318752
-0.012558211 -0.0036118007 -0.10958401 -0.103093594 -0.10920501 0.026317693 0.015759554 -0.100638695
-0.106306985 -0.100649856 -0.10347783 -0.02959424 -0.10501311 -0.10696072 -0.10841433 -0.10599253
0.025881514 -0.10755952 -0.10659169 -0.10468974 0.026593555 0.025488118 -0.103617445 -0.10306057
0.027320713 0.0020784594 0.027014693 0.026874436 -0.09852381 -0.10329881 -0.017560972 -0.10186135
-0.006494972 0.026407622 -0.10902488 0.02596921 -0.105455264 -0.10315107 -0.10649694 0.02686793
-0.10326585 -0.10476593 -0.11623353 -0.10185174 -0.10887296 -0.10553863 -0.10497055 -0.10771082
-0.047067102 -0.104119636 0.02693101 -0.107682966 -0.009743379 -0.106827244 -0.10478824 -0.073679574
0.024885777 0.013442647 0.012625445 -0.10752256 -0.10779059 -0.10948258 -0.10448174 0.02744141
-0.10193667 0.025990905 0.022730421 0.010952143 -0.10246731 -0.10542891 0.02694586 0.018561749
0.026558334 0.027488614 -0.10211362 0.006210388 -0.107286915 -0.08902239 -0.09878081 -0.10496613
0.02664528 -0.10492449 -0.106207676 -0.10575976 -0.026735405 -0.10882357 -0.009037778 -0.107278734
-0.054897286 0.02654262 -0.099084795 0.027117647 -0.104939505 -0.109348685 0.027431337 -0.10791524
-0.10230213 0.025669353 -0.10578404 -0.11118503 0.027315173 0.024608707 -0.23369692 -0.11335077
0.027372925 -0.10197632 -0.1034373 0.026387183 0.026658451 -0.1110748 -0.11097669 -0.10987435
-0.107188135 -0.109262854 -0.105344534 0.028188443 -0.10708766 -0.058808383 -0.10575566 -0.107708685
-0.10444965 -0.10286767 0.026763124 -0.10779348 -0.10574025 0.00027817496 -0.10241846 -0.10553314
0.025656434 0.02582436 0.025390666 0.027074192 -0.10661735 -0.11170829 -0.10370678 -0.1018495
-0.105837435 -0.13266347 -0.10490979 0.021346888 0.026470818 -0.104613855 -0.1028072 -0.106086455
-0.10840221 0.026568327 -0.103938796 -0.104357444 -0.10255277 0.026267234 0.023931874 -0.00875325
0.013347737 -0.1079389 -0.10173139 0.0263661 -0.024650889 0.025635328 -0.15326741 0.026826251
-0.11164157 -0.10244766 -0.10583284 0.011407196 0.025488013 -0.032991182 -0.10811407 -0.10688887
0.025743663 -0.10594747 -0.10159098 0.027366277 -0.20134974 -0.011936716 -0.10472165 -0.104883604
-0.15986435 -0.16962549 -0.105777614 -0.100404166 -0.11052965 -0.09320309 -0.10874569 -0.11064157

W_enc f4 [32, 1024]
00000000: 164f b639 14d7 57bd 9109 38be 1c35 db39
00000010: 59dc 95bd 968c 2ebe 9dc4 403d 1083 b0bd
00000020: 56f3 e539 9542 0dbe e1af 0cbe 11c9 063e
00000030: 3477 14be f222 bb3d 4ef0 5d3d 9d15 de3b
00000040: 8e38 daba ff69 9c3d 4404 e73b e19b 5bbe
00000050: 749f 343e 763a 273a f6e0 873d 9918 4ebe
00000060: 2adc 5abe 77f6 a4bc 4166 8fbb 569f 363e
00000070: 7598 b5bc a8c2 eebc 713d 8e3b 5824 7d3d
00000080: f391 903d ab9f 183e f65a cbba 53bd 90bc
00000090: 2f09 103d d95a 4ebc 6c89 b2bc a99e cebc
000000a0: 21ee 463d 1e00 183d 638e aa3d 69d2 fe3c
000000b0: 00f6 ae3d 7d05 8f3d a49e 023d 54a8 5e3b
000000c0: c819 083e 8b6f f03c 647f 1bbd 1a67 593d
000000d0: 2b9b 9bbd 16b2 893d e7f9 c93b d87a ff3c
000000e0: 73a5 89bd dda9 a63d 79ce 55be bfe3 3f3d
000000f0: ee63 31be e9f9 413e 458c d03d 288a 22bc
00000100: 1036 ab3c 32b3 84bc 194d b73d 0b30 2ebe
00000110: 955c 103d 73e9 45be 3f2a 64bc 449f e8bd
00000120: cd86 cf3c 51f0 aabb 0c1b 673e 76b1 3b3d
00000130: beef ebbd 79c7 0b3d 3fa0 7cbd 0934 c6bd
00000140: 98d1 41be b2cd 8d3d d0d5 aa3c e7cc 6a3d
00000150: 6263 3fbd 2af8 ff3d 6de2 6bbb 715d 303e
00000160: ea24 3bbd daeb 00be ebd6 43be c4db b03d
00000170: 9634 253d 338a 753b b0b4 edbd 8c8d 33be
00000180: def3 013d 67bc 38bc c462 253d c7ea d8bb
00000190: 2413 f0bd daa3 32be 3f7c 13bd 6e80 8b3e
000001a0: 2e6a e63d 62b8 a33c 730c 5cbd 9400 debc
000001b0: 3ea1 b93d 4fb5 143e 1531 65be 85f6 c8bc
000001c0: 1b19 32bd 1ae6 4a3e 639e 2f3c e4a6 86bd
000001d0: 95db 103e eae1 523d b25c a8bc 42de 91bd
000001e0: 864e b7bc cd4e 62be 8cc9 073a 5141 bc3e
000001f0: 5168 fcbc 1358 a5bd cab3 9b3c 43df f7bc
00000200: ecae 8dbc e195 58bb 275d c63c 937c f1bd
00000210: c4ef be3d 4ed0 1e3a 9d04 4ebd 3f34 273c
00000220: da45 07be 994c 71bc 42c0 0ebc 398c 9f3c
00000230: 523f fbbd d6d9 3fbe 2915 53bc 1b43 a73b
00000240: bab6 833d 8054 8dbc e9d5 ab3d b4f0 1cbd
00000250: 89c2 383d 87ad c63c 43a7 37be d8f8 24be
00000260: 6c3d 8a3d b255 103e 3951 98bd 4ed2 a3bc
00000270: ed8b e33d bb30 613d 3510 f2ba 9f84 e9bd
00000280: 695f 8abc 7e27 5dbd 87c6 b83d 964a c63c
00000290: 99c3 f13d b154 1fbd 009a b5bd 1026 543e
000002a0: 796a 51bd 5462 383b 96ba 60be 977b 0b3d
000002b0: 759a b6bd ca1d 273d 1480 513d fee8 043d
000002c0: 978b 4bbb 5ff2 b2bd 1044 263e 684f 5cbd
000002d0: 6b1f 0dbc a051 babc e81f 26bb 45a5 a73d
000002e0: 0e9d 3dbe 512d 803e 0d48 f1bc 0471 6bbd
000002f0: e0fb b93a bc5c 653d ad36 78bd 4baf a43e
00000300: fd96 90bd 6529 6b3d e340 e0bc 031b 1b3d
00000310: b3a7 c13d 6bfc 12bd 7698 cbbd 4477 a53e
00000320: 35b3 9c3c 9999 dcbc 5686 813c ede7 c63c
00000330: d399 9c3d 0df6 833e 20bb 4d3d 406f 5e3c
00000340: b87c 00bd f3ee ca3b 4ad1 293e 62e7 d3bc
00000350: 4939 d9bc 427e 7e3e a7ee f0bc 704a 863d
00000360: 9387 8c3d 669e a5bc 0cd5 86bc d270 8ebd
00000370: b2be 6dbe 7c7f 56bd cb3d a23c 5d6e a1bd
00000380: 7563 413c 3b6b d8bd 0ebc b0bc 4b5d efbc
00000390: 5898 09bc 3dda a53c b9ee 08bd 4192 a5bc
000003a0: 956b fcbc beec b0bd 2e0e 42be 665f 973c
000003b0: 082b 9ebc f626 333d 337c 05be 40f4 f0bd
000003c0: 603c 783d 4f43 fe3d 5feb eabd 3322 003d
000003d0: bcc1 6dbd 8756 94bd d3f9 9d3e 4499 0bbe
000003e0: e081 a2bc d2de 5ebd 586b 79be 2993 38bd
000003f0: b4ca 50bd 24a0 be3c 8870 df3d 64f6 913d
0.0003477267 -0.05269535 -0.179724 0.00041810505 -0.073174186 -0.17045817 0.047062505 -0.08618748
0.00043859583 -0.1379493 -0.13738967 0.13162638 -0.14498597 0.09137525 0.05418425 0.006777479
-0.0016648935 0.07637405 0.007050069 -0.21446182 0.17638952 0.0006379256 0.06634705 -0.20126571
-0.21373048 -0.020137055 -0.0043762033 0.1783422 -0.022167424 -0.029145554 0.0043408205 0.06180224
0.070590876 0.14904658 -0.0015514779 -0.017668402 0.03516501 -0.012594902 -0.021794043 -0.02522214
0.04856694 0.037109487 0.08327939 0.03110619 0.085430145 0.06983469 0.031889573 0.0033974843
0.13291085 0.029350063 -0.037963286 0.05307684 -0.07597955 0.0672342 0.006163824 0.031186506
-0.0672101 0.081378676 -0.20879544 0.046848055 -0.17323276 0.1894299 0.10183004 -0.009920634
0.020899802 -0.016198728 0.08950252 -0.17010514 0.035244543 -0.19327335 -0.013926088 -0.113585025
0.025332833 -0.005216636 0.22568911 0.045823537 -0.115203366 0.03412578 -0.06167626 -0.09677894
-0.1892761 0.06923999 0.020853907 0.057324316 -0.04672564 0.124985054 -0.0035993115 0.17223145
-0.0456895 -0.1258997 -0.19124953 0.08635667 0.040333353 0.0037466406 -0.11606729 -0.17534465
0.03172671 -0.011275387 0.040377393 -0.0066197845 -0.11722401 -0.17445317 -0.036007162 0.27246422
0.11250721 0.019985382 -0.05372281 -0.027099885 0.09063958 0.14522289 -0.22382005 -0.024531612
-0.043480974 0.1981434 0.010718915 -0.065748006 0.14146264 0.05148498 -0.020552013 -0.071224704
-0.02237631 -0.22100373 0.0005179874 0.36768582 -0.03081146 -0.080734394 0.019006629 -0.030257827
-0.017295323 -0.003304832 0.02421434 -0.11791339 0.093230754 0.00060582615 -0.05029737 0.0102053275
-0.1321024 -0.014727735 -0.00871283 0.019476043 -0.12267937 -0.18735442 -0.012883463 0.005104435
0.06431337 -0.017252207 0.083904095 -0.03831549 0.0451074 0.024252666 -0.17934899 -0.16110551
0.067499965 0.1409519 -0.07437367 -0.019997742 0.11110673 0.054978114 -0.0018467965 -0.114022486
-0.016891198 -0.05399274 0.09022241 0.024205487 0.118048854 -0.038899127 -0.08867264 0.20717645
-0.05112693 0.002813478 -0.21946177 0.03405341 -0.08916179 0.040799893 0.051147535 0.03244876
-0.0031058544 -0.08737635 0.16236901 -0.053786665 -0.008613448 -0.022744 -0.0025348607 0.081858195
-0.18516943 0.25034574 -0.029453302 -0.057480827 0.0014189444 0.05599664 -0.060599018 0.32164988
-0.07060049 0.057412524 -0.02737469 0.037867557 0.09455814 -0.035885256 -0.09941189 0.32317555
0.019128421 -0.02692871 0.015811127 0.024280513 0.07646527 0.2577366 0.050227284 0.013576329
-0.03136894 0.0061930357 0.16583744 -0.025867168 -0.026516574 0.24852851 -0.029410673 0.065571666
0.06861796 -0.020217132 -0.01645901 -0.069551125 -0.23217276 -0.052367672 0.019804856 -0.07882378
0.011803498 -0.105673276 -0.021574046 -0.02921929 -0.008398138 0.020245666 -0.03343079 -0.02021134
-0.030813018 -0.08638905 -0.18950722 0.018478107 -0.019307628 0.043738328 -0.1303566 -0.11765337
0.060604453 0.12415182 -0.11470675 0.031282615 -0.058046088 -0.07243066 0.30854663 -0.13632685
-0.01983732 -0.054411717 -0.24357355 -0.045062218 -0.050974563 0.02326972 0.109101355 0.071270734
