artefacts/toy_model-n_feat=1024-d_model=32-spars=0.99.pt (torch, 137008 bytes, 2 tensors)

W_tr f4 [1024, 32]
000000 02 8b d6 3a 12 3c 27 bb 5c af c0 bb 31 41 70 ba
       0.0016368332 -0.0025517982 -0.0058802795 -0.0009164988
000010 a8 69 53 bb 77 c2 00 3b 54 cf 86 39 ad 7a 32 ba
       -0.003225902 0.001964716 0.00025712943 -0.0006808441
000020 75 59 25 3b 6b 25 96 3a c0 ee 9a b9 30 d4 5d 39
       0.0025230322 0.0011455243 -0.00029551052 0.00021155248
000030 3e eb 9f 39 13 93 8a 3a 5e d8 31 bb b3 b5 2d ba
       0.00030502112 0.0010572396 -0.0027137022 -0.00066265016
000040 54 8a 45 ba 10 80 09 3b d2 12 d3 ba 17 8d e8 b9
       -0.0007535566 0.0020980872 -0.0016103631 -0.00044355608
000050 2e 73 ae 3a 67 93 44 3b 07 1b 93 ba 5e d9 02 3b
       0.0013309473 0.0029995085 -0.0011223265 0.0019965987
000060 5e f4 40 ba ce f7 8d ba ba f9 49 bb 0f 47 fb 3a
       -0.00073606323 -0.0010831298 -0.0030819015 0.0019170957
000070 58 4b c2 ba cc 20 85 3b d4 1c 34 b9 83 ce 6b 39
       -0.001482348 0.0040627476 -0.00017176877 0.00022488278
000080 e4 95 c5 3a 9d d0 2f bb 26 3d da 3a 31 ff 4c 3b
       0.0015074578 -0.0026827224 0.0016650304 0.0031280036
000090 0b b1 6c 3b 84 07 e5 ba 5a cf ef b8 c3 ad d0 3a
       0.0036116268 -0.0017473553 -0.0001143503 0.0015920926
0000a0 46 f7 ca 39 b2 92 aa bb 35 d4 a4 3a ce 0e e1 b9
       0.00038712675 -0.0052054757 0.001257545 -0.00042926375
0000b0 03 7b 2b 3b b3 7f 7c ba 9c 33 ce 3a ff 41 ca 3a
       0.002616585 -0.0009632066 0.0015731934 0.0015431045
0000c0 7a 51 ff ba 8e d8 89 ba 39 33 65 3b 3d b6 9b 3a
       -0.0019479238 -0.0010516809 0.0034973158 0.0011879873
0000d0 4d d7 a0 3a b8 bb 03 b9 14 87 98 3b a2 c3 79 bb
       0.0012271196 -0.00012563064 0.0046547744 -0.003811099
0000e0 4d 37 2c 3a ac db 41 b9 ed d7 f2 3b 92 88 41 bb
       0.000656952 -0.00018487748 0.0074109943 -0.0029530865
0000f0 39 41 5d 3a 10 7e d0 38 69 7b 3a 39 ff e8 4c 3b
       0.00084402 9.941694e-05 0.00017784316 0.0031266806
000100 54 b7 a9 3e 09 e2 ed bd c2 77 82 be 25 d9 f7 bd
       0.3314768 -0.116153784 -0.25481993 -0.12101964
000110 68 07 73 be 3f df 9e 3d 6e 3f 8f 3e 15 07 53 3e
       -0.23733294 0.077574246 0.2797808 0.2060817
000120 f3 3a 9e be 3a 65 c0 bd 89 89 f6 bd 00 42 3a 3e
       -0.3090435 -0.093943074 -0.120379515 0.1818924
000130 e7 0e 2e be 45 31 40 3e 4d 52 91 bc 7f 1c 1a 3e
       -0.16997872 0.18768795 -0.01773944 0.15049933
000140 58 c6 9e bc 5e 37 9c bd ef 7f 08 3e 6e 19 00 3d
       -0.019381687 -0.07627748 0.13330053 0.03127425
000150 5e 30 50 bd 83 0d 46 be 88 d5 af bd a8 73 8c 3d
       -0.050827377 -0.19341092 -0.0858565 0.06857997
000160 ee 7b 18 be 92 40 5f 3e ac c0 ec 3e ff ef 62 3e
       -0.14891025 0.21801975 0.46240747 0.22161864
000170 35 82 39 be a7 8a ae 3e 59 d0 b5 be 18 99 ed 3d
       -0.18116076 0.34090158 -0.3551052 0.11601466
000180 c3 11 3d b8 85 81 02 37 ea 8e 7d 39 65 12 ac 38
       -4.5077653e-05 7.77876e-06 0.000241812 8.2050254e-05
000190 18 4f 47 b9 ba 4b 3a b8 6b 95 be 37 df 7b 6f 37
       -0.00019007584 -4.441638e-05 2.2719343e-05 1.4274351e-05
0001a0 7f 99 c1 39 0c d7 a1 37 ff 67 02 b9 d1 2e d6 37
       0.00036926192 1.9292835e-05 -0.00012436508 2.5532589e-05
0001b0 57 b8 5a 39 54 5b 74 b9 d9 0f 13 39 63 6c 40 b8
       0.00020858772 -0.00023303676 0.00014024916 -4.587731e-05
0001c0 64 b4 55 39 91 1e 5a b9 28 15 0d 39 6a 73 b0 b8
       0.00020380464 -0.00020801487 0.00013454689 -8.4138315e-05
0001d0 02 a2 57 b9 be 8c 86 b9 cc 02 d0 b8 a1 c7 be b6
       -0.0002056435 -0.00025663333 -9.918734e-05 -5.685681e-06
0001e0 83 1c c8 37 89 b1 5f b9 9e 5d 24 b8 90 55 d8 38
       2.3855135e-05 -0.00021333074 -3.9187835e-05 0.0001031562
0001f0 35 d9 ea 38 50 68 22 39 91 67 ad b7 82 dd 03 39
       0.000111984475 0.00015488383 -2.0671434e-05 0.00012575652
000200 91 48 39 3a a7 ad ab 3a 89 9e 89 3a 6e 47 3f ba
       0.0007068003 0.0013098017 0.0010499518 -0.00072967156
000210 44 a8 9f 3a 12 f6 52 ba 6b ac dc 3a 18 25 94 ba
       0.0012180884 -0.00080475316 0.0016836053 -0.0011302559
000220 f0 13 f6 ba 76 f5 83 3b d0 6d a7 bb 88 47 42 3b
       -0.0018774252 0.004027064 -0.005109526 0.0029644687
000230 84 35 9f 3a 97 28 5f bb 6d 3d c6 ba 00 b4 81 3a
       0.0012146686 -0.0034051293 -0.0015124507 0.0009895563
000240 d9 96 b1 3a 38 6e a2 3b 2a 52 32 bb cb 28 c6 ba
       0.0013548984 0.0049569868 -0.0027209618 -0.0015118358
000250 3a 75 7c bb 01 13 81 bb f8 4d a6 3a 56 33 5a ba
       -0.003852202 -0.003939033 0.0012688031 -0.00083236897
000260 24 c9 37 3b e0 7f d9 b9 6e 2f ad 3a 1e 56 61 ba
       0.0028043473 -0.0004148474 0.0013212988 -0.00085959013
000270 e9 64 e8 3b 4c b8 ad bb c5 9c 89 ba 67 49 39 ba
       0.0070921076 -0.005301511 -0.0010498991 -0.0007068128
000280 c8 9a 3a bb ee 1c 64 3b dc a8 81 ba 06 f5 0d 3a
       -0.0028473604 0.0034807282 -0.0009892243 0.00054152345
000290 dd 43 02 bb e4 b1 fc ba dc 51 c0 3a 0c c7 3c ba
       -0.0019876875 -0.001927909 0.0014672833 -0.0007201291
0002a0 58 1d 0f ba f0 e2 25 bb 69 ac f3 ba 41 4a 61 bb
       -0.00054593896 -0.0025312267 -0.0018590811 -0.0034376534
0002b0 dd 1d 4d 39 8a 7f 1d 3b e7 2c e6 3a d2 c5 89 3a
       0.00019561448 0.0024032318 0.0017560989 0.0010511226
0002c0 d0 2b b2 ba 75 8b 25 ba 18 8e fa ba 84 5b 49 ba
       -0.0013593379 -0.0006315031 -0.0019115834 -0.00076811784
0002d0 76 9c 09 ba ad a5 37 3a 00 0a c7 3b 4b 22 a5 bb
       -0.000524945 0.00070055836 0.00607419 -0.0050394884
0002e0 c8 29 84 39 90 02 28 3a 92 15 47 3a 8a 5f 21 bb
       0.0002520813 0.0006409073 0.0007594462 -0.0024623596
0002f0 dc 56 87 38 b2 96 b1 39 9b a3 d3 3a 6b d6 95 3a
       6.4534805e-05 0.00033872348 0.0016146781 0.0011431699
000300 d2 30 0d bb 45 6e 52 3a 57 15 5d ba d2 d9 a0 3b
       -0.0021543992 0.00080272957 -0.0008433661 0.0049087787
000310 dd e7 2e 3b 00 63 70 b9 22 33 8d ba b0 88 34 3a
       0.0026688494 -0.00022925064 -0.0010772685 0.0006886823
000320 4f ba 6d bb c0 62 7b 3b ef a4 bf 3a c4 c4 4c 3a
       -0.0036274379 0.003835842 0.0014621298 0.0007811303
000330 88 bd 2c b9 ca 03 14 3b 28 2b d6 3a 30 02 3b bb
       -0.00016473804 0.0022585266 0.0016339766 -0.002853524
000340 19 e3 65 ba 8a 80 23 bb 28 5e 92 bb 21 ca 91 ba
       -0.0008769497 -0.0024948441 -0.0044667907 -0.0011122861
000350 1a 9f 20 bb 8b 6c 9b ba c2 b8 22 39 96 38 2b 3b
       -0.0024508894 -0.001185791 0.00015518352 0.0026126257
000360 9d 90 37 3a 20 03 ad 3b 6b 76 0b 3a e0 a6 0c 3b
       0.0007002445 0.0052799135 0.0005320075 0.002146177
000370 31 9c b0 bb 0f bf 36 ba 84 11 a9 39 f7 ea 81 ba
       -0.005389713 -0.0006971219 0.00032247242 -0.0009911944
000380 ca 31 45 3b e9 64 54 3b 91 f2 b5 ba b6 27 80 3a
       0.003008949 0.003240878 -0.0013881495 0.000977746
000390 bb fb 14 3b 12 ae b0 bb 6e d9 1e ba 9d 9c 67 bb
       0.002273305 -0.0053918445 -0.0006059621 -0.0035341152
0003a0 dd cb 4a 3b 3c 27 11 ba 11 a7 18 3b d5 11 73 3b
       0.0030944266 -0.00055371574 0.0023292939 0.0037089486
0003b0 fe fe 3c bb e8 4b ad 3b 21 56 ab b7 a7 36 13 3b
       -0.002883851 0.0052885897 -2.0424895e-05 0.0022462995
0003c0 67 16 c8 ba 05 d5 ed 3a c1 cd 39 bb 7f 62 8a ba
       -0.0015265465 0.001814515 -0.0028351399 -0.0010557919
0003d0 15 b7 a3 3b 4e a2 f1 ba f2 29 26 bb 32 c4 24 ba
       0.0049961903 -0.0018435211 -0.0025354591 -0.0006285339
0003e0 1e 19 69 3a db 31 b0 b8 ba 54 cf ba 6a 12 c4 ba
       0.00088919874 -8.40162e-05 -0.0015818097 -0.0014959101
0003f0 c2 21 5a 39 65 c1 a8 ba 9d 99 37 3a a4 f3 a5 b6
       0.00020802676 -0.0012875019 0.0007003786 -4.9457467e-06

bias f4 [1024]
000000 26 6f 70 bd 51 b0 b4 bd 32 63 33 bf 02 be a3 3b
       -0.05869975 -0.08822692 -0.70073235 0.004997016
000010 91 31 ba bd 52 bb 8c bd ac 0e 02 be 10 93 98 bd
       -0.09091485 -0.06871666 -0.1270091 -0.07449925
000020 e8 80 f7 bd be 06 32 bf 85 ac 34 bf fc 24 33 bf
       -0.12085134 -0.6954154 -0.70575744 -0.6997831
000030 69 41 33 bf 31 7f 32 bf 60 93 31 bf f5 df 32 bf
       -0.7002168 -0.6972533 -0.693655 -0.6987298
000040 d9 c7 32 bf 80 35 33 bf e2 5b a1 3b 0d 05 b7 bd
       -0.69836193 -0.7000351 0.0049242834 -0.0893651
000050 fa c1 32 bf 18 4a 32 bf 5e a5 32 bf 22 a8 31 bf
       -0.69827235 -0.6964431 -0.6978358 -0.69397175
000060 29 35 8f bd 0f 3b 32 bf ce 6f 32 bf 20 1d 33 bf
       -0.06992561 -0.69621366 -0.6970185 -0.69966316
000070 f5 86 34 bf d2 16 33 bf a2 c8 32 bf ff 12 32 bf
       -0.7051843 -0.69956696 -0.6983739 -0.69560236
000080 57 53 a4 3b 29 1e 13 be 29 58 32 bf 06 95 04 be
       0.0050148177 -0.14366974 -0.6966577 -0.12947473
000090 25 da 32 bf 97 05 33 bf c2 5e 33 bf c7 16 31 bf
       -0.6986411 -0.69930404 -0.70066464 -0.6917538
0000a0 95 9c 32 bf 39 1f 32 bf f5 73 80 bd 33 09 33 bf
       -0.69770175 -0.6957889 -0.06272117 -0.6993591
0000b0 f8 ba a2 3b 89 81 32 bf 85 1d a5 bd a7 d7 fa bd
       0.004966136 -0.69728905 -0.08062271 -0.12248164
0000c0 76 e8 31 bf 45 de 32 bf 02 ba a2 3b 76 88 a5 3b
       -0.6949533 -0.69870406 0.0049660215 0.005051668
0000d0 ef 47 96 bd e1 9e f5 bd ec a0 31 bf b7 0f a5 bd
       -0.07337939 -0.11993194 -0.6938617 -0.08059638
0000e0 d6 3e a3 bd 9c cb 33 bf d2 ca 31 bf 5c 9f 32 bf
       -0.079709694 -0.7023256 -0.69450104 -0.69774413
0000f0 21 7a a3 3b 7e 5c 32 bf 05 4a 32 bf 24 ab 32 bf
       0.004988924 -0.6967238 -0.69644195 -0.6979239
000100 f3 ec a3 3b f0 78 33 bf 87 c5 32 bf 7e dd 33 bf
       0.005002612 -0.7010641 -0.6983265 -0.70259845
000110 04 77 be bd c5 ec 32 bf 67 6a a2 3b 70 1c 32 bf
       -0.09300044 -0.6989253 0.004956532 -0.6957464
000120 fe cb ab bd 7a e2 c5 bd d7 7a 9a bd ec 37 33 bf
       -0.08388518 -0.096623376 -0.07542961 -0.70007205
000130 86 40 32 bf 96 aa 32 bf 21 51 fd bd 26 43 a9 bd
       -0.69629705 -0.69791543 -0.1236899 -0.08264761
000140 ac 66 32 bf a5 30 33 bf c5 3a 32 bf 2e 6b 32 bf
       -0.69687915 -0.699961 -0.69620925 -0.69694793
000150 5f 26 33 bf 2e dd 9c bd e8 f1 31 bf f1 11 dc bd
       -0.69980425 -0.07659374 -0.69509745 -0.107456096
000160 8a 10 32 bf 48 cc 30 bf 27 5d 32 bf d9 ff a5 bd
       -0.69556487 -0.6906171 -0.6967339 -0.0810544
000170 d9 1c 33 bf 9d fb a3 3b 1b e7 a1 3b c8 e0 b3 bd
       -0.69965893 0.00500436 0.00494088 -0.08783108
000180 86 ae d7 bd e7 8f c0 bd d9 28 33 bf e6 ba a7 bd
       -0.105313346 -0.09402447 -0.69984204 -0.08189945
000190 0c 67 98 bd c3 6d a5 3b 0f 1a a4 3b bd b3 33 bf
       -0.0744153 0.005048485 0.0050079892 -0.70196134
0001a0 3a c0 a2 3b 5d 93 32 bf 9f 14 a4 3b ce ca d1 bd
       0.004966763 -0.6975611 0.005007341 -0.1024376
0001b0 a9 29 33 bf a2 39 33 bf 3a 4f 31 bf 4b f8 f1 bd
       -0.69985443 -0.70009816 -0.69261515 -0.11814936
0001c0 3b 02 37 be 78 cf 32 bf be e5 32 bf 2b 2e bd bd
       -0.17871945 -0.6984782 -0.6988181 -0.092373215
0001d0 f6 eb a3 3b 31 8f 32 bf 9b c0 32 bf 65 9a a1 3b
       0.005002494 -0.6974974 -0.6982514 0.0049317353
0001e0 01 f6 a4 3b 41 c1 a4 3b 83 93 33 bf 6c de 32 bf
       0.0050342088 0.0050279205 -0.7014696 -0.6987064
0001f0 fa fd 32 bf 60 af 32 bf 24 42 33 bf 75 fa 32 bf
       -0.6991879 -0.6979885 -0.700228 -0.6991342
000200 8c 2c 0a be 50 11 32 bf c1 4d 33 bf 84 56 13 be
       -0.13493556 -0.69557667 -0.7004052 -0.14388472
000210 15 40 33 bf 9f 6f a6 bd 53 c1 a2 bd c6 ce 92 bd
       -0.70019656 -0.08126759 -0.0794703 -0.07168345
000220 ab 6b 33 bf c1 8a 32 bf 87 df a4 3b ba 3d 33 bf
       -0.70086163 -0.6974297 0.0050315293 -0.7001606
000230 10 33 34 bf 80 1f ff bd dc ac 32 bf 9c 1e 7d bd
       -0.70390415 -0.1245718 -0.6979501 -0.06179677
000240 2f 8d 31 bf 81 80 31 bf 63 a3 9b bd f0 89 dc bd
       -0.69356054 -0.69336706 -0.07599523 -0.10768497
000250 c4 66 a6 3b 12 a9 32 bf f7 77 32 bf fe 5c 8e bd
       0.0050781686 -0.6978923 -0.697143 -0.069513306
000260 e0 b0 33 bf 04 5b a3 3b 7c 08 33 bf 98 54 32 bf
       -0.70191765 0.004985215 -0.6993482 -0.6966033
000270 93 d4 a3 bd e1 e3 31 bf 7d 54 35 be 32 00 33 bf
       -0.0799953 -0.6948834 -0.17708011 -0.69922173
000280 33 d6 db bd 99 09 a5 3b ee 3a 32 bf eb ca ad bd
       -0.10734215 0.0050365445 -0.6962117 -0.08485969
000290 8c 60 fe bd 75 d5 a2 3b fc f7 32 bf 65 c6 9f bd
       -0.124207586 0.0049692937 -0.69909644 -0.07801513
0002a0 80 1b 0e be be ee 32 bf 38 10 32 bf db f0 b5 bd
       -0.13877678 -0.6989554 -0.69556 -0.0888383
0002b0 4f 59 0c be 8d 31 33 bf a5 4a 4c be 2f d1 31 bf
       -0.13705944 -0.69997483 -0.1995035 -0.69459814
0002c0 3a 1e a7 bd 92 ed 31 bf cb 54 a1 3b 13 f4 32 bf
       -0.08160062 -0.6950313 0.004923438 -0.6990368
0002d0 7a 20 a3 bd 95 00 33 bf cb 85 33 bf 6b 51 32 bf
       -0.07965179 -0.69922763 -0.70126027 -0.69655484
0002e0 3f 0e 33 bf 47 a4 31 bf 15 64 a5 bd c2 de a4 bd
       -0.6994361 -0.6939129 -0.0807573 -0.080503
0002f0 63 f3 31 bf 1a d8 32 bf 0e 9e 32 bf 15 36 32 bf
       -0.69512004 -0.69860995 -0.6977242 -0.6961377
000300 c5 64 a3 3b 60 d2 9f bd 0d 30 80 bd 45 ec ab bd
       0.004986378 -0.07803798 -0.06259165 -0.08394674
000310 74 3e 33 bf 9c ac 32 bf 29 83 a5 3b 7a 01 35 bf
       -0.7001717 -0.6979463 0.005051036 -0.7070538
000320 41 5d 1f be ba d9 a7 bd 09 87 33 bf c7 3e 32 bf
       -0.15562917 -0.08195825 -0.7012792 -0.6962704
000330 fb a6 32 bf 22 04 33 bf 73 a7 a1 bd 4f be 32 bf
       -0.6978604 -0.6992818 -0.078932665 -0.6982164
000340 9d 88 32 bf 39 a2 02 be 2c 78 34 bf e7 c0 32 bf
       -0.69739705 -0.12757196 -0.7049587 -0.69825596
000350 05 0f 51 be 2f d8 33 bf 1d 21 32 bf 1b ff 04 be
       -0.20415886 -0.70251745 -0.69581777 -0.1298794
000360 ac a6 8f bd b4 6a a0 bd b7 a7 32 bf 24 f7 a9 bd
       -0.07014212 -0.07832852 -0.6978716 -0.082990915
000370 69 b8 a4 bd 46 7b 33 bf e4 e8 31 bf 73 da 9c bd
       -0.08042986 -0.70109975 -0.6949599 -0.076588534
000380 9b 39 32 bf 94 47 9b bd 3e c6 9d bd 56 1b a6 bd
       -0.6961915 -0.07582012 -0.07703827 -0.08110683
000390 15 34 a1 3b e3 5c a2 3b 94 61 33 bf 14 10 9d bd
       0.0049195387 0.0049549206 -0.7007077 -0.07669082
0003a0 41 ba bc bd 8b a0 31 bf 2d 84 31 bf 2e c4 32 bf
       -0.092152126 -0.69385594 -0.6934231 -0.69830596
0003b0 88 ba a6 bd 96 af 33 bf a5 2d 31 bf 94 46 34 bf
       -0.08141047 -0.701898 -0.69210273 -0.70420194
0003c0 7f cd a1 bd c9 a8 31 bf 84 17 33 bf 69 66 c3 bd
       -0.079005234 -0.6939817 -0.69957757 -0.095410176
0003d0 d6 44 a4 3b d8 05 32 bf ff af 33 bf 39 9c 33 bf
       0.0050130887 -0.69540167 -0.70190424 -0.7016025
0003e0 50 65 a4 3b 48 1a a2 3b ef 9a a8 bd 96 35 32 bf
       0.00501696 0.0049469806 -0.08232676 -0.69613016
0003f0 b7 88 98 bd c4 8f 33 bf 00 0d 34 bf a5 18 33 bf
       -0.07447951 -0.70141244 -0.70332336 -0.6995948
