artefacts/toy_model-spars=0.9.pt (torch, 1568 bytes, 2 tensors)

W f4 [2, 6]
000000 42 fe 80 3f 69 be 85 bf 91 df d3 bd 64 24 3c 3f
       1.0077593 -1.0448734 -0.10345376 0.7349303
000010 fb 36 0b bf 1c fa 77 be bf 63 e2 be 34 50 67 be
       -0.5438077 -0.24216503 -0.44216725 -0.22589189
000020 09 6f 8b bf b6 59 51 3f 37 fc 72 3f 62 28 58 bd
       -1.089326 0.81777513 0.949161 -0.052772887

b f4 [6]
000000 04 fd 50 be 2b e3 4c be 09 9c 53 be 06 6c 4f be
       -0.20409018 -0.20008533 -0.20664991 -0.20256051
000010 c3 61 53 be 2c 46 dc 3c
       -0.20642762 0.02688893
